models/Sepsis_BDLSTM2_model.pth (torch, 354366 bytes, 17 tensors)

weight f4 [64, 40, 1]
00000000: 9d32 493e 5236 3a40 d42a 87bf 423a 3e3e
00000010: 0f8f 6e3f d982 8d3f aa12 0240 d6f6 4940
00000020: 3519 9abf 73fb e63f 419f dabf cfb7 aabb
00000030: af2e bf3f da73 ee3d 0e6a cc3f bb48 d0be
00000040: aa32 c73f 3790 5240 4ef7 433e 1a4c 59bf
00000050: aafa 26be ca65 693f 7153 c5bf 29c5 8cbf
00000060: 6ad7 46bf 2b24 03c0 4f8b 3a3f 5343 bb3e
00000070: 664b 6ebf e6db 903e c71f 283f e9ab 16c0
00000080: b3fb 6c3f 8e47 89be bcbc 543f 8008 15bf
00000090: fcef c2be ce44 113f 9cb0 eb3f 67ea 55c0
000000a0: e26a 40bf c637 9cbf bec9 aabf eba2 1cbe
000000b0: fd04 0b3f 22e3 06c0 7a96 dfbf d00a 8cbf
000000c0: 2a3e 1540 1952 f13f a18a 16c0 63a1 01bf
000000d0: 3b5f 993f e492 5ebf f1c7 833f ac40 b5be
000000e0: 9021 3cc0 a9d5 24c0 31c3 19bf b82a 0b40
000000f0: acb9 4cbf bcd2 363f a8f9 603f 5447 a53e
00000100: 3cf6 7a40 a5e2 69bf eedd edbf 94ec 7f40
00000110: eb93 0bbf 379b 9cbf 2440 cabf 07a9 c23f
00000120: 30f3 4b3d 4611 cb3e d131 473f ccc5 65bf
00000130: 04a2 e7bf 8c01 d73f b4d8 babf 90f4 883f
00000140: 9e51 f0be 2fc8 babf 655b 053f 630d c03e
00000150: c8c3 553f 3d26 72be b55f b5be 9eb7 3bc0
00000160: 4e6d e33e 4f76 19c0 9357 913f f0c4 d2be
00000170: 1e36 a3bf 25df 52bd a9a5 cebf 29ed 3d3f
00000180: 1cb7 abbf 854c 44c0 f81c d83e d596 063f
00000190: 63d5 523f aa14 d5be 1dad c83f c5f1 233f
000001a0: 74cc 893f 6b2c 0640 80a1 3abf 90f4 59bf
000001b0: 19b4 593f 2d0d 8b3d 8316 95bf 21b2 1a40
000001c0: 1bf5 73bf 5b2c 3ebf 7e85 2dbf 41b8 893f
000001d0: 0b08 963f efa2 95bf b9ce 4ebf bcd4 6e40
000001e0: 883b 453e d000 1640 49f9 bfbf 85ab c73e
000001f0: 0fec 2a3e 6503 ac3f 720a 1a3f 4538 5340
00000200: 1d35 e2bf 518c 0d40 fdf7 2cc0 5ba4 b6bd
00000210: ce10 e63f a4e5 6ebf 8c23 3d3f 513d c9be
00000220: b721 1d40 996d a140 d4ae 2abf dd37 60bf
00000230: 1a3a 0f3f 8c38 0c3f c2c0 bfbf 1f21 b0bf
00000240: f181 d6bf 0880 14c0 e80e 9e3f 4ca1 963f
00000250: 9d53 d83d 08f2 033f 74ed 61be 2b1f 2ac0
00000260: d2e9 363f c39a 363f f235 6d3f 4847 dfbe
00000270: a97f 053d e959 08bd eca0 d73f 412c 65c0
00000280: 1881 17bd 3969 4b40 08a4 c2bf fcdb f03e
00000290: f2e3 b2bd 2293 4f3f 63c7 bebe 402d 4d40
000002a0: e90e d0bf d7a1 0140 d9df 43c0 b321 52be
000002b0: 3e03 e53f e718 bebf 5977 843f a39c 74be
000002c0: c4b6 1340 8098 8b40 b00b f9be 1446 52bf
000002d0: 3d68 553f a6d2 0b3f 2cfb d5bf 89c4 a5bf
000002e0: e5f6 e7bf 6b39 10c0 113b cb3f ca32 ca3f
000002f0: e67f b7bd 8956 bc3e 812a d7be 086a 2cc0
00000300: 65cc 3d3f 1b36 293f aaa6 633f aa67 4bbf
00000310: 490f 533e 9e07 c7bd 98a8 d53f 045a 65c0
00000320: de6b 01bf 6204 3c40 80b1 c2bf 06c5 103f
00000330: 2f00 4abf 9cb9 a33f cfe4 44bf 91ac 5040
00000340: c8c8 9cbf c825 1a40 a6f8 47c0 63e5 483e
00000350: 23c6 583f a9aa 00c0 b013 183e 0d62 2a3f
00000360: 78a1 0540 701e a840 6713 5dbf 6196 0abf
00000370: 3775 bd3e 5a92 a53e 3d40 e6bf 28ba 1cc0
00000380: 2f08 d6bf 08bd e8bf f998 a73f 629e a23f
00000390: c407 fd3e e5d2 623f 3d52 33bf 55b0 10c0
000003a0: 264d c8be 05ab b43f d10c a83f 6122 05bf
000003b0: 8551 3b3e eb6c 61be 1979 d03f 352e 1fc0
000003c0: 12fc b53e fd8a 693f 26d6 09c0 d731 983e
000003d0: b0be e13f fcaf e03f 21a0 e7be 5635 f1bf
000003e0: d393 f2bf dd7f 6cbf cbfc 113e 9967 b0bf
000003f0: 873f bd3e 4430 11c0 4a23 f8bf 5fa6 e23f
0.19648214 2.9095654 -1.0559945 0.18576911 0.9318704 1.1055557 2.0323892 3.1556907
-1.2038943 1.8045486 -1.707985 -0.0052099 1.4936122 0.11643191 1.5969865 -0.4068049
1.5562336 3.2900522 0.19137308 -0.84881747 -0.16306558 0.9117094 -1.5416089 -1.0997669
-0.77672446 -2.0490825 0.7286882 0.36574802 -0.930838 0.2829277 0.6567349 -2.3542426
0.9257156 -0.26812404 0.83100486 -0.58216095 -0.3807372 0.5674561 1.8413272 -3.3424318
-0.7516309 -1.2204521 -1.3342817 -0.15296523 0.54304487 -2.107613 -1.7467797 -1.09408
2.3319192 1.8853179 -2.3522112 -0.5063688 1.1982187 -0.8694289 1.0295392 -0.35400903
-2.9395485 -2.5755408 -0.60063463 2.1744823 -0.7997081 0.71415305 0.87880945 0.32280982
3.921279 -0.9136146 -1.8583353 3.9988146 -0.5452258 -1.2234868 -1.5800824 1.5207833
0.04979247 0.39661616 0.7781039 -0.8975494 -1.8096318 1.6797347 -1.4597383 1.0699635
-0.4693727 -1.4592341 0.5209258 0.37510213 0.83501863 -0.23647399 -0.3542458 -2.933082
0.4441933 -2.397846 1.135485 -0.41165876 -1.275089 -0.05148234 -1.6144305 0.7419
-1.3415256 -3.0671704 0.422096 0.525739 0.8235685 -0.41617328 1.567783 0.64040786
1.0765519 2.096461 -0.7290268 -0.851388 0.8504043 0.067896225 -1.1647495 2.4171221
-0.95295876 -0.7428643 -0.6778182 1.0759355 1.1721205 -1.1690348 -0.80784184 3.7317343
0.1926099 2.3437996 -1.4997951 0.38998047 0.16691612 1.3438536 0.6017219 3.3003094
-1.7672459 2.2116892 -2.702636 -0.08918067 1.7973878 -0.93319154 0.73882365 -0.39304593
2.4551828 5.0446286 -0.66673017 -0.8758524 0.5594803 0.54773784 -1.49807 -1.3760108
-1.6758405 -2.3203144 1.2348299 1.1767974 0.10562823 0.51541185 -0.22063237 -2.6581523
0.7145053 0.713299 0.9266044 -0.4360907 0.03259245 -0.03328887 1.6845984 -3.580826
-0.036988348 3.1782973 -1.5206308 0.47042835 -0.08734883 0.8108388 -0.37261495 3.2058868
-1.625455 2.025503 -3.0605376 -0.20520668 1.7891614 -1.485135 1.0348922 -0.23887877
2.3080301 4.3623657 -0.4864173 -0.8213818 0.8336218 0.546183 -1.6717277 -1.2950603
-1.8122221 -2.2535045 1.5877401 1.579675 -0.089599416 0.3678477 -0.42024615 -2.6939716
0.74140006 0.66098183 0.88926184 -0.79455054 0.206113 -0.0971825 1.6692076 -3.583619
-0.5055522 2.9377675 -1.5210419 0.56550634 -0.7890653 1.2791018 -0.76911634 3.2605326
-1.2248774 2.408556 -3.1245513 0.19618754 0.8467733 -2.0104163 0.1485126 0.66555864
2.0879803 5.2537155 -0.8635773 -0.5413571 0.3700349 0.3233822 -1.7988354 -2.448862
-1.6721247 -1.8182688 1.3093559 1.2704585 0.49419987 0.8860305 -0.7004736 -2.2607625
-0.3912136 1.4114691 1.3128911 -0.52005583 0.18292816 -0.22014205 1.6286956 -2.4871953
0.35543877 0.91227704 -2.1536956 0.29725525 1.7636318 1.7553706 -0.45239356 -1.8844402
-1.8951362 -0.92382604 0.14256589 -1.3781615 0.3696253 -2.268571 -1.9385769 1.7707022

bias f4 [64]
00000000: ba3a 5b40 5644 68c0 42d5 3dc0 a4b1 3d40
00000010: 2167 3140 b71e ec3f 079c 03c0 d7cb dcbd
00000020: 97e9 23c0 c3d7 483f dd82 aa3f d2f9 e1bf
00000030: a8e8 56c0 6e37 51bf 18ef 9f3d 7b31 0e40
00000040: d7df 2840 bf01 9ec0 a883 2240 64a1 40c0
00000050: df0f 1640 e329 15c0 ce83 a03f a3d1 bdbf
00000060: 1d05 15c0 b064 5f40 0e7f 2840 b968 52bf
00000070: 353c 28c0 acef 0a40 e63d 1840 d4ea f43e
00000080: 641e 8d3f e733 32c0 9d9c 1040 2fdb 08c0
00000090: 84f3 08c0 491b 9d3f 2eee 77c0 1bfc ea3e
000000a0: 8c70 4bc0 e66d efbc 2e5b 2b40 c3b2 3140
000000b0: cbe1 3c3f deb6 2840 2b84 1540 740a 49c0
000000c0: 1630 2340 5f43 3cc0 17df 2740 f84d 23c0
000000d0: cff5 2c40 4010 3d40 a597 a73d 22ca 18c0
000000e0: 7a6a 38c0 4cbe 3840 2e00 95c0 bcea ebbe
000000f0: 01a6 20c0 1575 e0be f897 0f40 2afd 15c0
3.4254594 -3.629171 -2.9661412 2.9639673 2.7719195 1.8446873 -2.0563982 -0.10781067
-2.5611322 0.78454226 1.3321186 -1.7654364 -3.3579502 -0.81725204 0.078092754 2.22177
2.638662 -4.937713 2.5392857 -3.0098505 2.3447187 -2.3306816 1.2540224 -1.4829601
-2.328437 3.4905205 2.6327548 -0.82191044 -2.6286747 2.1708784 2.378778 0.4783541
1.10249 -2.7844179 2.259559 -2.138378 -2.139863 1.2273952 -3.8739123 0.45895466
-3.1787443 -0.029227208 2.6774402 2.7765357 0.7378203 2.6361613 2.336192 -3.141263
2.54981 -2.941612 2.6229913 -2.5516338 2.702503 2.9541168 0.08183221 -2.3873372
-2.8814988 2.8866148 -4.656272 -0.46077526 -2.510132 -0.43839327 2.2436504 -2.343577

weight f4 [64, 64, 1]
00000000: cc42 5e40 13df 0ec0 9d90 3bc0 7e70 9c40
00000010: ce3a ae40 7f85 1a40 e181 b8bf 4a74 81be
00000020: 65d9 c8bf b5e4 0f3e 1148 b5be c6b9 66bc
00000030: f2c1 0ac0 14bf c6bd 0e07 193e 02c7 4e40
00000040: 2db3 0f40 a9db 63c0 b9f8 8e40 a98d 0ac0
00000050: 85c9 3f40 aa19 bbbf aeea 9a3f 9afb 3abf
00000060: ae29 b4bf 2f25 4c40 e0a4 af40 c050 bd3e
00000070: 51da 3ac0 0919 f23f dab2 2f40 673c ec3d
00000080: 5093 853f a495 e9bf 8bb7 8340 5bf1 a0bf
00000090: 60fb 81bf ff5a 9a3f 9220 5cc0 f827 7b3e
000000a0: 7d4f 46c0 3d6f 843d 4c99 8840 06c0 0240
000000b0: c02e 493f 100b e33f 7211 9440 5572 2ac0
000000c0: c097 8140 2b62 69c0 23ed 4640 ba4c c8bf
000000d0: 9045 7540 247c 6e40 bc2e 7f3f 9df9 edbf
000000e0: 378d f6bf 587b 8940 11b5 44c0 7e9f 51bf
000000f0: 5025 ddbf 765b b7be c566 3240 82a5 ebbf
00000100: 6a53 52bf b853 b43f 2636 303f 726b 2cc0
00000110: 8734 7ec0 8d95 eabf 3f5e 513e b8d6 2abf
00000120: 8a75 ca3c 70e7 6d3f d31b 7dbe dddd 0fbf
00000130: b4b7 6d3f 76ae 6bbf e068 7cbf 82e5 17c0
00000140: 66c5 98bf 0459 c43f cb40 1bc0 8c3a a63f
00000150: efa9 52bf 2493 12be fbc3 00c0 cae6 a4bf
00000160: 1170 cc3e a727 0cbf 55be 7ec0 fff6 1e3f
00000170: 7b6a 223f b7f0 0a3f 394f 0bc0 d85b 22be
00000180: 763e 6bbf e8e3 5b3f 8f77 44c0 1804 1ebf
00000190: 61ea 0f3f a5fe a1bf 9fe0 0c3f 5735 b5be
000001a0: 53c6 ce3f c389 1c3e 8de9 32bf f687 a9be
000001b0: 7de6 83bf 56bf 8abf d49f 43c0 210a 713f
000001c0: 1441 5fc0 3661 ac3f 1406 bbbf 0406 8f3f
000001d0: e96b 41c0 e7bb b4bf b835 30bf 16d3 c03e
000001e0: e720 a23f d952 01c0 f1c3 5d3e b220 4bbf
000001f0: 99c0 8f3f 6870 09c0 2ddb ccbf b853 eb3d
00000200: 5064 4f40 9bd8 0cc0 4285 c5bf 9d05 9f40
00000210: f5fb b440 bafb 1b40 a865 15bf 3999 b53e
00000220: d477 49bf 631f b33e 1f77 933d 8764 b03e
00000230: 3fc9 a1bf fd9c 35be ad5b 503e 1c29 4d40
00000240: 6129 3040 064a 32c0 f054 8e40 2c02 8ebf
00000250: f33c 4540 3408 a3bf eea3 e63f 37d9 d13d
00000260: bfc9 59bf 16da 2e40 e48e ad40 5868 123f
00000270: b992 17c0 a198 0740 fba3 4540 5078 d2bd
00000280: 9c07 bc3f 04fd debf 6bc7 8040 d6e8 e8be
00000290: 91d8 0fbf 26d9 cd3f 07e8 2fc0 2af7 a9bd
000002a0: d5db f7bf 5ecc b6be 9ede 8d40 14dd 0c40
000002b0: 35c0 f43e a93b 0440 8767 7340 8448 d8bf
000002c0: 5f12 a140 bf59 2bc0 ddab 5440 78d6 0ebf
000002d0: a84f 7940 41cf 4140 e6f3 2d3f 040f b8bf
000002e0: d114 66bf bf5c 9140 b562 f9bf 8c17 373e
000002f0: e9e1 4dbf 66db 233f 22f0 0540 39cb 9abf
00000300: 2c4f 4f3f 7f8a 32bf dd8c 7abe 32a6 a5be
00000310: 1f4f 5dbf 82f3 23bf 3d0a 2dbf b19d 8ebf
00000320: 5b55 dc3f cdc2 5bbe f29c 0f3f 5f2d f93e
00000330: a5da d93e 8039 fcbe dcbc c33c 9d94 74bf
00000340: 0421 3840 0b2c eabf 1282 b9bd 131a dc3f
00000350: 494c 103f e52f 2640 fc40 e23f e2f9 53bf
00000360: ba05 b43f c605 533f ee34 06c0 0d67 90bd
00000370: 7760 f73f 0cc7 2b40 243c 283d 7811 8abe
00000380: 812e 1e40 99e6 8c3f 15df cdbf 2598 7abf
00000390: a4d6 e03f b1ce bebf a74d 97bf 7de1 0fbf
000003a0: 6003 98bd e6fb 9bbf bc5a 613f 877a 3c3f
000003b0: 7ce7 91be 3f10 403f 9fc6 0bc0 715f 8d3f
000003c0: b571 8ebe 1a45 2140 ba0c c23f f399 ac3f
000003d0: b4e3 4ebe 413d 8b3e 335d e03f 5c98 1740
000003e0: b97b 4abd 1ec0 c73e 7d03 86bf f41f 6d3f
000003f0: 3eec 063f ee21 49bf fccf 4540 d650 943f
3.472827 -2.2323654 -2.9307015 4.888732 5.4446783 2.414398 -1.4414636 -0.25284034
-1.5691344 0.14052089 -0.35406545 -0.014082378 -2.1680875 -0.09704414 0.14944097 3.2308965
2.245311 -3.560282 4.4678617 -2.1648962 2.9966748 -1.4617207 1.2102869 -0.73040164
-1.407522 3.1897695 5.4888763 0.3697567 -2.919575 1.891389 2.7452912 0.11534958
1.0435581 -1.8248792 4.116155 -1.2573656 -1.0154839 1.205902 -3.439488 0.24526966
-3.0986016 0.064665295 4.268713 2.0429702 0.7858696 1.7737751 4.6271296 -2.6632283
4.049774 -3.6466167 3.1082237 -1.5648415 3.8323708 3.726327 0.99680686 -1.8591801
-1.9261845 4.2963066 -3.0735514 -0.8188399 -1.7277012 -0.35811967 2.7875226 -1.8409884
-0.8215853 1.4088049 0.68832624 -2.694058 -3.971956 -1.8326889 0.20446108 -0.66733885
0.02471425 0.9293127 -0.24717645 -0.5619791 0.92858434 -0.9206308 -0.98597527 -2.373383
-1.1935241 1.5339665 -2.4258296 1.2986617 -0.8229055 -0.14313942 -2.0119617 -1.2882931
0.3992925 -0.54748005 -3.980367 0.62095636 0.63443726 0.5427355 -2.1767104 -0.15855348
-0.9189218 0.8589463 -3.0697973 -0.61724997 0.5621701 -1.2655836 0.55030245 -0.35392258
1.6154274 0.15286927 -0.6988762 -0.33111542 -1.0304714 -1.0839641 -3.0566301 0.9415608
-3.488347 1.3467166 -1.461123 1.1173711 -3.0222113 -1.4119843 -0.6883197 0.37661046
1.2666291 -2.0206816 0.21656777 -0.79346764 1.1230651 -2.1474857 -1.6004387 0.114905775
3.2404976 -2.2007205 -1.5431292 4.969435 5.6557565 2.4372392 -0.5835824 0.35468462
-0.7869847 0.34984884 0.07200455 0.34451696 -1.263954 -0.17735668 0.20347472 3.205634
2.7525256 -2.785768 4.4478683 -1.1094413 3.081845 -1.2736878 1.8018777 0.102465086
-0.85073465 2.732061 5.4236927 0.57190466 -2.3683302 2.1186907 3.0881336 -0.10276854
1.4689822 -1.7420964 4.024343 -0.4549014 -0.5618983 1.6081893 -2.7485368 -0.08299096
-1.9363962 -0.35702795 4.433425 2.2009935 0.47802892 2.0661414 3.8031938 -1.689713
5.0334926 -2.6773527 3.3229897 -0.55796003 3.8954868 3.0282748 0.67950284 -1.4379582
-0.89875513 4.5425715 -1.9483248 0.17880076 -0.80422837 0.6400665 2.0927815 -1.2093269
0.8098018 -0.6974258 -0.24467798 -0.3235336 -0.86448854 -0.6404344 -0.6759375 -1.1141874
1.7213548 -0.2146103 0.56098855 0.48667428 0.42549625 -0.4926262 0.023893766 -0.95539266
2.877015 -1.8294691 -0.09058012 1.7195457 0.563664 2.5966733 1.7676082 -0.82803166
1.4064248 0.82430685 -2.0969806 -0.070509054 1.9326314 2.6840239 0.04107298 -0.26966453
2.4715884 1.1007873 -1.6083704 -0.97888404 1.7565503 -1.4906827 -1.1820573 -0.5620344
-0.07422519 -1.2186248 0.88029075 0.7362446 -0.2849692 0.7502479 -2.1839979 1.1044751
-0.27821127 2.5198426 1.5160134 1.3484482 -0.2020405 0.2719517 1.7528442 2.3686743
-0.049434397 0.3901376 -1.0469815 0.9262688 0.52704227 -0.785674 3.0908194 1.1587169

bias f4 [64]
00000000: 5b2c 0840 5cdd ce3e 2d32 a83f a1f6 20be
00000010: 84c6 8abf 8858 59bf 5429 133f 4336 723f
00000020: ca8a 9a3f 1979 fabd 166b 3abf e5bd f13f
00000030: d131 bc3f 0a5d 1a40 4104 f3bf afdd 0f40
00000040: 4c51 0140 92d4 a13f a454 cb3f 5fe1 9f3f
00000050: 1b20 debe a6da 0e40 8107 3bbf 27c0 92bf
00000060: 4f8b 8f3f 836a 36c0 4d6e 2340 3ce2 00be
00000070: 7689 0040 6537 cd3f cf80 ee3f 14f4 6240
00000080: 9c0c 2240 6799 98bf 091b ce3f 1916 a63f
00000090: 8b26 e03e 9afa 3abf 3510 0abf 0598 2abf
000000a0: adae 9dbf f70a 60c0 0df8 f53f 39ae 8fbe
000000b0: af38 18c0 36f5 e4bf d83c ccbf 48e0 e83f
000000c0: 98a8 8e3f 5238 ab3e 70a8 c4bf aacd e13f
000000d0: 8384 3fc0 b1dd 1f3f 77db 56c0 6f94 bfbf
000000e0: 6fcb 143e d965 e83f 19ea 97bf ca50 21c0
000000f0: 891c efbf f854 79c0 6959 90bf 2381 87be
2.1277072 0.4040326 1.3140312 -0.15719081 -1.0841832 -0.8490071 0.57484937 0.94614047
1.2073605 -0.12230129 -0.7281965 1.8886076 1.4702703 2.4119287 -1.8985673 2.2479055
2.020587 1.2642996 1.5885205 1.2490653 -0.4338387 2.2320952 -0.73058325 -1.146489
1.1214389 -2.850251 2.5536072 -0.12586302 2.00839 1.603253 1.8633059 3.5461473
2.5320196 -1.1921815 1.6102 1.2975494 0.43779406 -0.7303864 -0.5393098 -0.66638213
-1.2318932 -3.5006692 1.9216324 -0.2806261 -2.3784597 -1.7887332 -1.5956068 1.8193445
1.1145201 0.33441406 -1.5363903 1.7640889 -2.9924629 0.6244765 -3.357145 -1.4967173
0.14530729 1.8156081 -1.1868316 -2.520556 -1.8680583 -3.895811 -1.1277286 -0.2646571

weight f4 [64, 64, 1]
00000000: 4f5d 24c0 8262 ce3e 2084 13c0 66a2 94bf
00000010: 12a6 cd3e f476 e5bf 2f01 f3bf e576 c03e
00000020: e934 ce3e 01ed 1b3f ad77 173f 1d05 70bf
00000030: 0002 f5bd dc37 3bc0 e787 85bf 992f 2cc0
00000040: b2cd d33e 0b8f d0be 2546 cebe 7ebd e93d
00000050: 1b64 b6bf 25aa 1cc0 50be 64bf 5c80 cbbf
00000060: b9c5 1fc0 e19d 0cbf c6bd 66bf 9781 e5bf
00000070: dc6a 0ebf ade1 c0be ae64 4ebe 8379 46c0
00000080: 2ace 38bf 2eb2 cdbf c593 80bf 3ab6 08c0
00000090: 073d fbbf 21a9 a1bf f497 b9bf 828f 013f
000000a0: 239d 27bf e5d4 1340 f10c 12be 5e9b b1bf
000000b0: c0d0 27bf 194a 88bf aa8e 95be 4624 85bd
000000c0: 1842 19c0 80f5 37bf 07d5 1c3f 794b f6bf
000000d0: 29a3 ea3e 1a97 fbbf a961 f2bd ae82 8dbf
000000e0: d4d8 f13e ab78 04c0 c470 cb3f 306b 493e
000000f0: 2e0b 4d3f 264b f33e 9d1b 9fbf 5482 9ebf
00000100: 7518 6540 8d20 ae3e aaa8 923f 8bbe 843f
00000110: ed2e 55be 246c 43bd 0d9f 543f d975 b93f
00000120: 8b01 a13f 0a61 2cbe 1c0e 1f3d 7d88 843f
00000130: 2955 933f 6a15 7740 51a5 4cbe 174b 4040
00000140: df7a d13f d273 4d3f fda2 503f 0ea4 963f
00000150: eb5d 7f3e 70ce 1640 fa79 ee3e 015c 4bbf
00000160: f660 1240 1e2a 0ebf 7343 1140 8833 823e
00000170: c702 833f c6e4 a53f 99bb aa3f 3e1e 8240
00000180: 3b0e f83f e8a6 d8be a3f8 d33f 731b 2540
00000190: 74dc 303f a7fa 1dbf 7033 ccbe 7f06 34bc
000001a0: b241 83bf d8b4 45c0 92c8 1340 0248 3f3f
000001b0: 3e3e 07bf 9297 64bf aafd 59be 80be 0840
000001c0: b26a 943f b321 a93e c1fc 61be 2285 6440
000001d0: 393b 88bf c3d6 133f 1bfa 62bf 8aaf 8cbf
000001e0: 8872 d7be 750f e53f 93c0 c0be 9a5e b2be
000001f0: 4595 b7be a313 adbf 5653 59bf 7c16 833f
00000200: 9fca a83f d30c 783f 3acb dc3f 071d e13e
00000210: 0487 a43e 8b40 1240 a980 4540 386f 553e
00000220: 05e4 063f 1bde 8d3f 13d7 423e 417f 673f
00000230: fc18 ab3e baec 9b3f 2768 37be 5f7f 793f
00000240: 221c b93f dc79 c6bc 38c8 93be d86e e33e
00000250: f8b9 64be 8fcb c93f f497 c23e 44d6 0440
00000260: 2cb6 f93f 730a d6be 7fe6 b43d 43ee 4c40
00000270: 56c1 9d3e d198 a33f 85c7 833e 0ddd 473f
00000280: ac16 c1bd 29a8 3d40 965b b73f 904c b83f
00000290: 98d3 3140 8314 2f40 d49a f73f 3b8c 953f
000002a0: 7123 2440 edd5 083f 8d77 cf3d ac3e e3bd
000002b0: 7684 b8be 03e0 753f 6655 143f adac 433d
000002c0: e7c3 0640 02ef 853f 543f 6c3f 4488 dc3f
000002d0: 2e6d ac3e c5fb 0140 dad7 083d b0dd 1540
000002e0: 3bda 813f 7b0f 853f e7bc 87bd ee1d 363f
000002f0: 1460 563f e798 0e3f ae8b 0740 ab92 7a3e
00000300: 546a 123f e70e 12c0 0662 bc3f e2ba 68be
00000310: 6d74 9bbf 4a7b e53f c69f 763f 5bde aabf
00000320: cc5d c3bf 60ca 113e 91c0 8fbf 4ff7 3abf
00000330: 61e2 a1bf 2e59 bb3e 03b3 9ebf 2a7f 17bd
00000340: d154 d9bf 8612 82bf 58b6 11bf 4c72 b4bf
00000350: 41e9 01bf 49e9 f83f 2b5d b9be 225f f43f
00000360: 072e 4abf 505f bcbf a50f b73e d2df 5e3f
00000370: fc9d cbbe c028 c2be 2ec2 adbf 72f1 92bf
00000380: 1766 86be b3cc a83f 6a2d 6c3e c916 173f
00000390: dac0 943f a663 cc3f 69d0 db3f 2f8b 21c0
000003a0: 6d3d cf3f 4858 13c0 3b65 babf 716e a7be
000003b0: d6bc b3bf 57a9 933f d72c 68bf ca34 abbf
000003c0: 8342 c03f e753 f4bf fcc8 fcbf ed12 083f
000003d0: feb1 a4bf 1ff7 b23f 0965 bebf 03fe ff3f
000003e0: 5c95 323f 5d53 023e 4c5f 00c0 d5bf 503e
000003f0: 0878 7cbf 4edc f1bf ba3d de3f c846 fdbd
-2.568195 0.4030953 -2.3049393 -1.161206 0.40165764 -1.7926927 -1.8984736 0.3759071
0.40274742 0.60908514 0.59166986 -0.937578 -0.11963272 -2.9252844 -1.0432099 -2.6904051
0.4136787 -0.40734133 -0.4028789 0.11413096 -1.42493 -2.4478848 -0.89352894 -1.5898547
-2.496443 -0.54928404 -0.9013332 -1.7930173 -0.55631804 -0.37672177 -0.20155594 -3.1011665
-0.7218958 -1.6070001 -1.0045096 -2.1361222 -1.9627999 -1.2629739 -1.4499497 0.506096
-0.65474147 2.309869 -0.14262749 -1.3875539 -0.655529 -1.0647613 -0.29210407 -0.06501059
-2.394659 -0.7185898 0.61262554 -1.9241782 0.45827606 -1.9655488 -0.118350334 -1.1055505
0.4723574 -2.069865 1.5893788 0.19669795 0.80095184 0.4751827 -1.2430302 -1.2383523
3.5796177 0.3400921 1.1457722 1.0370649 -0.20818682 -0.047710553 0.8305519 1.4489089
1.2578596 -0.16833892 0.038831815 1.0354153 1.1510364 3.860682 -0.19984938 3.0045831
1.6365622 0.8025485 0.814987 1.1768816 0.2493817 2.35635 0.46577436 -0.7943726
2.287168 -0.55533016 2.2697418 0.2542994 1.0235223 1.2960441 1.33385 4.0661917
1.9379343 -0.4231484 1.6560253 2.5798004 0.69086385 -0.6171059 -0.39882994 -0.010987877
-1.0254424 -3.0891628 2.3091168 0.7471925 -0.5282935 -0.8929378 -0.21288171 2.1366272
1.1595061 0.33033523 -0.22069074 3.5706258 -1.0643073 0.57749575 -0.8866288 -1.099107
-0.42079568 1.7895342 -0.37646922 -0.348378 -0.3585607 -1.3521618 -0.84892786 1.0241237
1.3186835 0.9689457 1.724952 0.4396746 0.3213426 2.2851894 3.0859778 0.20843208
0.5269168 1.1083406 0.19027357 0.9042855 0.334175 1.2181618 -0.17910825 0.9745998
1.446171 -0.024228029 -0.28863692 0.44420505 -0.22336566 1.5765246 0.38006556 2.0755777
1.950872 -0.41804847 0.08833026 3.2020423 0.30811566 1.2781011 0.2573816 0.7807167
-0.094281524 2.9633887 1.4324825 1.4398365 2.7785397 2.735627 1.9344125 1.168342
2.5646632 0.53451425 0.101302244 -0.11095938 -0.3603856 0.9604494 0.5794281 0.0477721
2.105707 1.0463564 0.9228413 1.7229085 0.33677047 2.0309918 0.033408977 2.3416557
1.0144724 1.0395349 -0.06627827 0.7113942 0.83740354 0.5570206 2.1179004 0.24470012
0.57193494 -2.2821596 1.4717414 -0.2272754 -1.2144905 1.792825 0.96337545 -1.3349108
-1.5263 0.14237356 -1.1230642 -0.7303361 -1.264721 0.36591476 -1.239838 -0.036986507
-1.6979009 -1.0161903 -0.5691886 -1.4097381 -0.5074654 1.9446193 -0.36203894 1.9091532
-0.7897648 -1.4716587 0.35754123 0.8706027 -0.3976897 -0.37921715 -1.3574884 -1.1479933
-0.26249763 1.3187469 0.23064199 0.5901914 1.1621354 1.596791 1.7172977 -2.52412
1.6190621 -2.3022633 -1.4562143 -0.32701448 -1.4042003 1.1536053 -0.9069342 -1.3375485
1.5020298 -1.9088105 -1.9748836 0.5315388 -1.2866819 1.3981665 -1.4874583 1.9999393
0.69759154 0.12727113 -2.0058165 0.20385678 -0.98620653 -1.8895357 1.7362587 -0.12367016

bias f4 [64]
00000000: 683a 1940 3a6b 8240 c7b8 3340 ff52 b9bf
00000010: afe3 7e3f 7a5f 96bf 0949 3fbf 2ae6 5dbf
00000020: 7239 abbf 764f c9bf bbd6 c6bf 4930 df3e
00000030: 0154 873e b18f e9bf f23e 183e 7ad0 33bf
00000040: 9484 e5bd 60b0 93be 6b89 40bf 3256 39be
00000050: 0f4f 2240 409c 1b3f fd39 2f3f 5b54 833d
00000060: fdfb a93e 36e0 0dbe a54f 8ebf eec2 e7be
00000070: a616 003e dcec 983e 2e7b f7bf 1bf7 4c3e
00000080: 4dc2 36be ba00 09bf 05fa 85bf 87ef 68bf
00000090: ced6 dd3e faf0 bbbf 67d5 1ac0 7985 acbf
000000a0: a518 76be 3fff 9abd f83a a5bf 0b3e 0fbf
000000b0: 2cef 10c0 2ce0 49c0 e82f abbf eae4 62bf
000000c0: 52cf 96bf babd 30c0 f101 44c0 1129 85c0
000000d0: 6b8d 53be a0ac a4bf 6d23 15c0 f194 8abf
000000e0: 5ba9 07bf 7cb7 373e 5228 94bf 3897 d0bd
000000f0: 3c90 96be 6a9f 9ebf f061 d13c 018e 9d3e
2.3941898 4.075589 2.808153 -1.4478453 0.9956617 -1.1747887 -0.7472082 -0.8667933
-1.3376906 -1.5727375 -1.553428 0.43591526 0.26431277 -1.8246976 0.14867762 -0.70239985
-0.11206928 -0.288455 -0.75209683 -0.18099287 2.5360754 0.60785294 0.6844786 0.06412574
0.33200064 -0.13855061 -1.1118056 -0.45265907 0.1250864 0.2986821 -1.9334466 0.20016138
-0.17847557 -0.53516734 -1.0466925 -0.9099049 0.43327945 -1.4682915 -2.419275 -1.3478233
-0.24032839 -0.075682156 -1.2908621 -0.55954045 -2.264598 -3.1543074 -1.3373995 -0.88630545
-1.1782019 -2.76158 -3.0626185 -4.161263 -0.20659415 -1.2865181 -2.3302872 -1.0826703
-0.5299279 0.17941087 -1.1574805 -0.10185093 -0.29406917 -1.2392399 0.025559396 0.30772403

weight_ih_l0 f4 [256, 1]
00000000: 6840 fcbd 0864 993d 5e82 963d d410 75bd
00000010: a03f be3b 6416 cdbd 1af2 dc3d 0059 8c3c
00000020: b8c7 ed3c 9a48 edbd 1ee6 aabd 0a83 abbd
00000030: aee4 9dbd 98f1 1a3d ba15 d73d 1ccf 29bd
00000040: 88ef 83bc 881c b2bd f0a9 51bd c4dc 59bd
00000050: 0488 d1bd fcb9 d83d d265 aebd 3078 f1bc
00000060: baf8 c83d ce59 8abd 14c1 9f3d 9c26 203d
00000070: a4a0 d13d d033 72bc 4082 3bbd 92ca 843d
00000080: 7867 afbc b030 353d c8c8 91bc c0d1 91bd
00000090: a820 b13c c819 f8bd 40cd 8e3b c090 acbc
000000a0: ce3e b03d c0d8 afbc 7c2b 23bd 7a01 9e3d
000000b0: 70ad df3c 208c 653c d06d 82bc 9222 cf3d
000000c0: b433 fa3d fe8f c83d b8e8 3bbd 0838 d43c
000000d0: 9851 dcbd 568b f0bd 7045 273c 18ad 2f3d
000000e0: 40de dd3c c0e2 1f3c ee2b ec3d aa0f da3d
000000f0: fcdf 5dbd ceaa aabd f244 dabd 80c6 7fbc
00000100: 58d7 23bd 00ad 6dbc 165a da3d 6e2d febd
00000110: 4c08 513d eca7 ebbd d030 573c 9083 3c3d
00000120: 683d a93d a227 a6bd 0879 dcbd d4af 87bd
00000130: 38b5 b83c 4c3e dd3d d0b1 e93c a0dd 533d
00000140: 8cc8 433d f0da 903d 664b be3d 88de eebd
00000150: 9a1f ebbd b468 9c3d 9436 733d ba1d a3bd
00000160: 0029 cdba 1255 aebd 045f 41bd c40f bd3d
00000170: 3008 1abc d8f4 84bc 6e8a 8fbd c2fe ed3d
00000180: 684e b5bd f896 6dbd 7e87 b93d 2e69 bbbd
00000190: 2042 b13b ea12 893d b010 f93c cc7c f63d
000001a0: 2497 16bd 6a4d 90bd 78ad 913d ee4c 99bd
000001b0: 8231 cebd d037 e93d 4887 ebbc 2e47 be3d
000001c0: 40de 8dbd 505c d3bc d49f 9c3d 8490 adbd
000001d0: 70ab cf3c 1a25 d1bd fe2d ca3d c0ce 413b
000001e0: 507c 9c3d 7c3b 163d be52 e73d c0c1 aa3d
000001f0: 8681 8cbd 9a9a e43d 14e2 0ebd b06e aa3d
00000200: 7ea7 8c3d 2677 853d 54e7 15bd f009 22bd
00000210: a4ae f3bd 7e1b e4bd 9802 cfbc e0ca b8bd
00000220: 2009 0f3c c087 bb3d 1473 db3d 04c2 53bd
00000230: 4c01 6e3d 6041 a13d 08a0 8f3d 58c2 39bd
00000240: 90bf c93c 248f 13bd e068 2fbd 04ba 8c3d
00000250: daa4 e1bd 4ca6 003d 3861 be3c 8074 753b
00000260: 1e8a f2bd e41d 2fbd 66b3 c03d 08c5 74bd
00000270: b027 c63d 0a04 e5bd b4e0 7bbd e01b f63c
00000280: 8263 d3bd 2483 213d ace3 95bd f833 e03d
00000290: a4bb 0ebd f89d 313d 60c3 f0bb 10e4 d4bc
000002a0: 6013 973d 38a2 febd 4082 88bd 38f5 c23d
000002b0: 387c a13d 461d e5bd 780e 853c 44de 0fbd
000002c0: 3a8a d33d 5265 f83d f061 0a3c 1267 e53d
000002d0: d890 ed3c 14b7 59bd 202f 61bd 7412 2f3d
000002e0: 2040 a2bc d262 fbbd 8859 8b3d c805 a03d
000002f0: f8b9 aabd 7069 1fbd c24c c7bd 6837 b1bd
00000300: 563a 95bd a26c e5bd c0de 913d 8a0c b03d
00000310: a89d 40bd a0d9 063c 1430 39bd e8b2 ce3d
00000320: 14e4 c93d 7cae 6b3d 96aa ab3d bc6d 04bd
00000330: 1893 a6bc 08bb f73d 44a5 443d 7e0d c13d
00000340: 709c 533c 1a49 89bd 20e4 ecbd 3090 8bbd
00000350: 502b 64bd 3080 55bd de83 f83d 3cd0 aebd
00000360: 80d1 86ba e013 52bc 40b2 f0bd b0ba 49bc
00000370: 604b cf3d 8a22 fb3d 70a9 d43d 0c27 d6bd
00000380: 8049 36bb 0c17 753d ac14 653d 9050 c3bd
00000390: 007b 353d 4c3c 023d 000e 123c 90ff 8abd
000003a0: f00d e3bd 3cd8 9f3d 980e ffbc e00c 0d3c
000003b0: a0f9 a13b 20cf c2bd bce6 743d 0088 6ebc
000003c0: d2cc fb3d f09f 513c 689c d43c b05e 623c
000003d0: e2a0 b83d 08f9 fbbc 5860 e5bd 902f 643c
000003e0: a0c6 ee3c f0eb fcbc 7ce6 093d e83e aabd
000003f0: 98ed ae3c 64b8 183d 0ca3 283d a8fb 26bd
-0.12316972 0.074897826 0.07349084 -0.0598305 0.0058059245 -0.10014036 0.10788365 0.017132282
0.029025897 -0.11586113 -0.083446726 -0.08374603 -0.07709633 0.037828058 0.10502191 -0.04145728
-0.016105428 -0.08696848 -0.051187456 -0.053189054 -0.10231021 0.10582349 -0.085155144 -0.029476255
0.09813066 -0.0675541 0.078004986 0.03909932 0.10235718 -0.014782861 -0.045778513 0.0648395
-0.021411642 0.044235885 -0.017795935 -0.07120085 0.021622017 -0.121142924 0.004357964 -0.021065116
0.08605729 -0.02146566 -0.03983639 0.077151254 0.027304381 0.014010459 -0.015921503 0.10114016
0.12216893 0.09793089 -0.045876235 0.025905624 -0.1075775 -0.11745326 0.010209426 0.042889684
0.027083516 0.009758651 0.115318164 0.10647519 -0.054168686 -0.0833336 -0.106576815 -0.015611291
-0.04000029 -0.014506578 0.10661714 -0.12411009 0.051033303 -0.11506638 0.013134196 0.046023905
0.082636654 -0.08113028 -0.107652724 -0.066253334 0.02254735 0.10802898 0.02852717 0.05172503
0.04779868 0.07073009 0.09291725 -0.11663538 -0.11480637 0.07637158 0.05937822 -0.07964654
-0.0015652478 -0.085123196 -0.047209755 0.09231523 -0.009401366 -0.016230032 -0.07008825 0.11620857
-0.088528454 -0.058005303 0.09059046 -0.09150921 0.005409494 0.06693061 0.030403465 0.12035522
-0.036765233 -0.070460156 0.07113165 -0.07485376 -0.100680366 0.113875985 -0.02875103 0.0929092
-0.069271564 -0.025800854 0.07647672 -0.0847483 0.025350302 -0.10212155 0.098720536 0.0029572695
0.07640898 0.036677822 0.11295079 0.08337736 -0.06860642 0.111623004 -0.034883574 0.08321893
0.06867884 0.065168664 -0.036597565 -0.03956026 -0.118985444 -0.11138056 -0.025269791 -0.0902307
0.008730203 0.09156752 0.10715309 -0.0516987 0.058106706 0.078737974 0.070129454 -0.045351356
0.024627477 -0.03602518 -0.042824626 0.06871417 -0.11017771 0.031408593 0.023239717 0.0037453473
-0.1184275 -0.042753115 0.094092175 -0.059758216 0.096755385 -0.11182411 -0.06149359 0.030042589
-0.10321714 0.039431706 -0.073188156 0.10947412 -0.034846917 0.04336354 -0.0073475093 -0.025987655
0.07376742 -0.124332845 -0.06665468 0.09519428 0.07885021 -0.11187224 0.01624225 -0.03512408
0.10329099 0.121287 0.008446202 0.112013 0.028999731 -0.053153113 -0.054976583 0.042742208
-0.019805968 -0.12274708 0.06804186 0.07813603 -0.08336252 -0.038918912 -0.09731437 -0.08653146
-0.07286517 -0.11202361 0.07122564 0.08596142 -0.047025353 0.008230597 -0.045211866 0.100927174
0.098579556 0.05753945 0.08382146 -0.032331213 -0.020333812 0.1209622 0.048009172 0.094264016
0.012915716 -0.06703396 -0.11566949 -0.06814611 -0.05570537 -0.052124202 0.12134527 -0.08535811
-0.0010285825 -0.012822121 -0.117527485 -0.012312576 0.101217985 0.12262447 0.1038388 -0.10456666
-0.0027814806 0.059836432 0.055927917 -0.095368505 0.044306755 0.031795785 0.008914471 -0.06787026
-0.11086643 0.07804915 -0.031134889 0.008609027 0.0049430877 -0.09512162 0.059790358 -0.014558792
0.12294926 0.01279448 0.025953487 0.013816521 0.09015061 -0.030758396 -0.11200017 0.013927355
0.029147446 -0.030874223 0.033667073 -0.0831278 0.021353528 0.037285224 0.04117112 -0.04076734

weight_hh_l0 f4 [256, 64]
00000000: d28e bdbd eac7 9e3d 924a b23d d43c 0ebd
00000010: 06ca ddbd 705e a3bc 047c d4bd 88d9 633d
00000020: 7295 a33d 4cbf c7bd 543c 92bd acdf d8bd
00000030: 7424 09bd 62cc b4bd 4c1c 96bd b488 b23d
00000040: 88ce 8a3c 9470 5c3d a81a d13c 000e 03bc
00000050: 500e 10bc 58ff b53d 9872 1ebd 1089 e0bd
00000060: 8e67 983d 4c04 983d 9007 53bc 48c3 b93c
00000070: 54ce c43d b0c9 74bc 68c0 87bd ae43 a6bd
00000080: 601e 1b3c 10ae 0ebd e033 3fbd 20b7 99bb
00000090: 5873 87bd 184b f73c 6468 bdbd 00c3 65bb
000000a0: 609b 13bc 30c9 58bd 1c43 21bd e67e b9bd
000000b0: 10b4 f3bd f07c 0bbd 28d8 1abd d02a 07bc
000000c0: 7e90 cd3d 5a7a 903d 1ed8 debd b63b e83d
000000d0: 7cb8 6ebd 3cd6 d2bd 8826 11bd 90e7 523c
000000e0: e89d 04bd 30a2 d7bd 0c28 ad3d 70e4 c73c
000000f0: 2818 a83d 2c59 07bd 38d1 6e3d 6017 e33d
00000100: 6cdd 823d 0873 e63c 2003 2ebc 40e0 4f3d
00000110: 9070 3fbc fe04 97bd 0a2f 90bd c072 4a3c
00000120: aa0f af3d 4c83 f53d ac1f c2bd 2c6b 673d
00000130: b0b8 3cbc 6492 1ebd 803c a0bc 4412 59bd
00000140: 54a4 2e3d 3c4b 9f3d 5cac ce3d de98 d73d
00000150: 464c ab3d 50df ddbc 60b7 453d 66f5 aabd
00000160: 4c9f dcbd 28d6 27bd 64c7 c83d 8ca3 e53d
00000170: e804 283d 80ef d23b 80d6 e3ba 8402 8b3d
00000180: 00f7 3f3a 3662 b3bd c4ef 223d 54a0 9dbd
00000190: 802f 3bbd c407 fcbd 0888 d2bc 201c 79bd
000001a0: 1a36 c0bd 80dd 8f3a 0611 b33d b0fe b33c
000001b0: 288b f73c 624a fd3d 24b5 debd 70ec e73d
000001c0: c404 44bd 808f 1b3b f86f 54bd 38e7 f7bd
000001d0: 6e03 9dbd f0be 953c 4cd2 33bd 325f cc3d
000001e0: 7892 e9bc f8bc 2c3d 3e9c 803d a4ee 41bd
000001f0: 8c49 f7bd 8421 05bd 1ee1 f0bd 006a ddbb
00000200: 0019 44bd cc80 29bd d84a fc3d 186d a33c
00000210: 10fe 2c3c e2c4 8fbd e076 96bb 729b 983d
00000220: 4c16 ba3d 6829 18bd b62b 8e3d 7456 513d
00000230: 2a4e 903d f829 f8bc 60cd 023d 5a87 89bd
00000240: 304a 60bc 9085 d7bc 506c 9b3c 4062 b43b
00000250: 6024 dd3d c09e c33c 8c5f 04bd 8885 9d3c
00000260: 3cad 9bbd ae68 ee3d 622e 96bd 1c04 85bd
00000270: a6b5 83bd eccd f9bd 98a9 c73d 0c68 b5bd
00000280: bcea 32bd 26c8 b93d 8c9c e1bd 5c99 c73d
00000290: 3816 38bd 28b0 cdbd 6eaf dc3d e08a 11bd
000002a0: a841 9c3d a8f0 773d 9a20 f43d 160e a53d
000002b0: b01d b9bd 5c0a f83d 80dd b2bd c065 65bb
000002c0: 9a59 a6bd 42e2 fb3d e021 abbc e059 e63d
000002d0: 701c c13d bc1b 55bd 88fb 103d 0850 0abd
000002e0: e0ab e73d 2c4c 60bd 9c88 0f3d c078 143c
000002f0: 96f1 873d cc2f acbd a068 d9bc a84e 01bd
00000300: 6096 313c c8e6 d3bd 60f5 98bd 62c7 d13d
00000310: 6432 6b3d 4085 e13b 342a af3d 5666 afbd
00000320: 4e92 b23d 3ccf 29bd c4a9 6abd 9e00 fb3d
00000330: 6038 86bb bc72 7cbd c2ee 87bd f056 ca3d
00000340: cc4c 0ebd 2032 ecbc d66e e3bd ec23 113d
00000350: d0ad 09bc ccf7 4c3d f27b cabd da6c ddbd
00000360: 8074 27bd 6872 fdbd 7247 903d 6087 e53c
00000370: 3c6c 313d 80a4 44bd e03a 21bd e0b8 8a3c
00000380: 8c53 babd 0cb0 b23d 88c2 a73d 3cc3 963d
00000390: 50be 01bd 4c84 31bd 0cca b9bd b2e2 f2bd
000003a0: 9069 34bd 10d9 b0bd 8cf5 47bd 645b 553d
000003b0: a672 dcbd 4610 9f3d 00b9 c33c faf1 e53d
000003c0: 427a 943d b007 9d3d 6877 b83d a899 f3bc
000003d0: f22b 9a3d ee5b 823d d4f7 583d b869 04bd
000003e0: 8ec7 fd3d a008 203c 3013 04bd 5030 2b3d
000003f0: 2897 8c3c c09c 4bbb 9c59 02bd 9e1b 8e3d
-0.092557564 0.07752974 0.087056294 -0.03472598 -0.108295485 -0.019942492 -0.103752166 0.055627376
0.07987489 -0.09753284 -0.07140413 -0.10589537 -0.03348203 -0.088280454 -0.07329616 0.0871748
0.016944185 0.0538183 0.025525406 -0.007998943 -0.008792475 0.088865936 -0.038683504 -0.109636426
0.074416265 0.074226946 -0.012880221 0.022676125 0.096096665 -0.014940664 -0.066284955 -0.081183776
0.009467691 -0.034833968 -0.04668033 -0.0046910197 -0.06613797 0.030187175 -0.092484266 -0.0035058856
-0.009009212 -0.052926242 -0.03937064 -0.09057407 -0.118995786 -0.034054697 -0.0378038 -0.008249953
0.10037325 0.07054587 -0.10881065 0.11339514 -0.058281407 -0.10294768 -0.035437137 0.012872592
-0.032377154 -0.10528982 0.08454904 0.02440092 0.082077324 -0.033044025 0.058304995 0.11088443
0.06389889 0.028131023 -0.010620862 0.05075097 -0.011684552 -0.07373999 -0.07040222 0.01235646
0.085479096 0.119879335 -0.09478697 0.05649869 -0.011518642 -0.038713828 -0.019560099 -0.052995935
0.042637184 0.07778022 0.10091469 0.10527204 0.083641574 -0.027084023 0.048270583 -0.08347587
-0.10772571 -0.04097572 0.09803656 0.11212835 0.041020304 0.006437242 -0.0017382652 0.06787589
0.00073228776 -0.087589666 0.03977944 -0.07696596 -0.045699596 -0.12306169 -0.02569963 -0.060817838
-0.09385319 0.0010976046 0.08743481 0.02197203 0.030217722 0.12367703 -0.108743936 0.11324394
-0.047856107 0.0023736656 -0.051864594 -0.12104648 -0.0766667 0.018279523 -0.043901727 0.099790946
-0.028512225 0.042172402 0.06279801 -0.047346726 -0.12074575 -0.032502666 -0.11761688 -0.006757021
-0.047875404 -0.041382596 0.12318963 0.01994948 0.01055862 -0.07019974 -0.0045918077 0.07451524
0.09086284 -0.037148863 0.06941931 0.05110784 0.070461586 -0.03029345 0.031934142 -0.067152694
-0.013689563 -0.026308805 0.018972546 0.0055048764 0.107979536 0.023879409 -0.032317683 0.019228712
-0.07601401 0.1164106 -0.073330656 -0.064949244 -0.06431131 -0.121974796 0.09749144 -0.08857736
-0.04368089 0.090713784 -0.11016187 0.09746048 -0.044943064 -0.10043365 0.10775648 -0.035532832
0.076297104 0.060532242 0.11920281 0.08059327 -0.090388656 0.12111351 -0.08733654 -0.0035003275
-0.08122559 0.12299015 -0.020890176 0.11247611 0.09429252 -0.052028403 0.03539613 -0.03376773
0.113120794 -0.054760143 0.03504239 0.009061992 0.06637876 -0.08407554 -0.026539147 -0.031569153
0.010839075 -0.103467524 -0.074686766 0.102431074 0.057421103 0.0068823397 0.085529715 -0.08564441
0.08719312 -0.0414574 -0.057290807 0.12255977 -0.004096076 -0.061632857 -0.06637336 0.09879863
-0.034741208 -0.028832495 -0.11105125 0.03543465 -0.008403257 0.050041005 -0.09886922 -0.108117774
-0.040882587 -0.12375337 0.07044877 0.028018653 0.04331611 -0.048008442 -0.03936279 0.016933858
-0.090979666 0.087249845 0.08191401 0.07361457 -0.031675637 -0.04333906 -0.090717405 -0.11859645
-0.044045985 -0.086351514 -0.048818156 0.05208911 -0.10764055 0.07766776 0.023891926 0.11227794
0.07249881 0.07667482 0.0900715 -0.029736355 0.07527913 0.063651904 0.052970722 -0.032327384
0.12391578 0.009767681 -0.03224486 0.04179412 0.01716192 -0.0031068772 -0.03182374 0.06938861

bias_ih_l0 f4 [256]
00000000: 90b1 153d 26c0 95bd 80a7 f23c 6023 8d3b
00000010: 7cff cfbd f873 c53d a29c b4bd 7899 9dbd
00000020: 4054 963d a441 89bd fe12 bf3d 6814 6c3d
00000030: 20d0 d83d 4e99 923d baf6 f93d 8451 f3bd
00000040: 206f f53d 6852 f5bc 5cea e03d d85b eebd
00000050: c467 8a3d ecec 7b3d 668e d93d 20a5 e13c
00000060: 9ed9 b9bd 68df b73c 3052 38bc 2842 efbd
00000070: ec73 8fbd e085 92bc 44e3 833d ce96 f03d
00000080: c0a6 4abd a220 c4bd 0e0c a73d 5076 33bc
00000090: accc 5f3d e4e7 ec3d ca32 983d 4c73 503d
000000a0: d006 eb3d 48da 7e3d 10a7 abbc 7429 db3d
000000b0: d072 573c b257 95bd 9cfe 903d c087 ddbb
000000c0: 9077 bcbc da6d 82bd 78de 093d d823 b73c
000000d0: 38b7 0e3d 623f dfbd 9cdc 0cbd c6d4 c83d
000000e0: 404a d1bb 0c3c c23d 4e77 a13d 6a6c 973d
000000f0: 9ec1 e63d d4dd b33d 6430 14bd 8063 33bc
00000100: 0017 3fbb a81b cb3d c0fc 5abb 4a0c 9a3d
00000110: 445c d6bd f0ed c63c 4c34 5bbd 58c3 c3bc
00000120: 7aeb d03d 3826 243d e6d3 c43d 002b 2a3c
00000130: 3cdd 3d3d 224b c03d 4ebb fe3d c84f 23bd
00000140: a899 c13d 8888 a1bc d01f fe3d 8c15 ea3d
00000150: 2e61 873d 8053 7ebd 0408 99bd 20a6 80bb
00000160: 762c ad3d 8438 17bd 9806 be3d 64bb f03d
00000170: 1001 21bd 1282 87bd 80d9 5fbb c057 a43d
00000180: 0856 98bc 0ac8 97bd c472 dfbd f08a 043c
00000190: a4df bd3d 803b 963d 289a ff3c 3a3b 80bd
000001a0: 2018 bf3c 0c06 17bd e8b9 5dbd c428 8c3d
000001b0: c626 bbbd 843e a2bd 78c3 1d3d a4bf 3a3d
000001c0: b87a b53d 7c58 2bbd 1ad0 e1bd d004 59bc
000001d0: 58cc d73c 00ad d93b 3a1d d43d b61f cd3d
000001e0: 4097 19bc d4b6 033d 800f c73d 78c2 f73c
000001f0: 1cf0 eebd f2d6 a73d a04e 21bd 5c57 2abd
00000200: 3479 d8bd 004d 4b3a 2047 f53b 986c 923d
00000210: 9e14 afbd 501c a53d 7071 3cbd e2d6 df3d
00000220: 8a06 b23d f0f8 75bc 2ed5 ac3d ae6b c5bd
00000230: f877 86bc d030 f8bd c8e7 c33c 5ccb c3bd
00000240: 70e2 febd f058 bebc 3c18 fbbd d841 31bd
00000250: 0009 b63c b6aa ecbd ae69 d2bd 76b8 bbbd
00000260: 1893 1ebd e0ab abbb 4874 f0bc fa2f f73d
00000270: 8cc6 11bd 3e8d c4bd ca15 f73d b806 f8bc
00000280: da92 b0bd 803e c43d 767b ee3d aab3 9abd
00000290: 68e5 83bc 108a 2e3c 703f 3fbc b082 463c
000002a0: 50f8 88bd 0017 353a 4051 d53c 7010 5b3d
000002b0: 1e9f cebd 226b f2bd f8c1 97bd a890 4dbd
000002c0: 6214 c33d c001 5ebc a82c bc3d 68b7 ae3d
000002d0: 54d3 bf3d 8619 823d ca7d 853d f63b c83d
000002e0: 8089 783c 3603 e9bd 501b c6bc ac31 bfbd
000002f0: 6804 e4bd fce1 e83d 32a2 c3bd c0e5 c7bb
00000300: cc50 743d 8817 38bd b810 b4bd 12aa 8bbd
00000310: f294 a53d c0e7 b5bc 68f1 67bd 808a 86ba
00000320: c4cf dfbd a83d dabc 8080 8cba 4619 f6bd
00000330: 18d4 d93d f046 bebd 1267 c63d 981d 943c
00000340: 30b7 403d 0010 c1b8 d0bf 55bc d808 103d
00000350: 6e64 b03d 1a2d b03d ecdb 5fbd a035 c53d
00000360: 7e9a f13d e4a8 053d a28b b1bd ae86 923d
00000370: f663 f9bd 9c66 a0bd 9c3c 713d 102d 923d
00000380: 00a0 54bb e06e 3d3d d074 54bc ce79 f3bd
00000390: 4075 ba3b b0eb e73d 0442 64bd f085 ee3d
000003a0: 18ec c83d 9026 9e3d c82f 8a3d 407a c1bb
000003b0: 9ca9 51bd 0659 94bd 009d 513b c250 c9bd
000003c0: c04d 17bb 70a3 703c 34c2 c83d b0bb a4bc
000003d0: c052 9bbc 54b4 10bd 9696 e3bd 38ae 99bc
000003e0: b07f 113c 724e fbbd 7063 d5bc f08d 603d
000003f0: 18be aabc 2c7c 49bd 1479 04bd 5489 a33d
0.03654629 -0.0731204 0.029620886 0.0043071955 -0.10156152 0.0964126 -0.08818938 -0.076952875
0.07340288 -0.06701973 0.09329794 0.05763665 0.10586572 0.07158147 0.122052625 -0.11880782
0.11984086 -0.02994652 0.109822005 -0.116386116 0.06758073 0.061505243 0.106228635 0.027544558
-0.0907471 0.022445396 -0.011250064 -0.1168254 -0.07004532 -0.017886102 0.06439832 0.11747514
-0.04947543 -0.09576537 0.08156596 -0.010953501 0.05463855 0.11567667 0.07431562 0.050891206
0.11475909 0.062219888 -0.020953685 0.10701266 0.013149932 -0.07292117 0.07079813 -0.0067605674
-0.02300623 -0.06368609 0.03365943 0.022355959 0.0348427 -0.10900761 -0.034390077 0.09806208
-0.006387025 0.09484109 0.07884084 0.07393725 0.11267398 0.08782545 -0.03617896 -0.010949016
-0.0029157996 0.099173844 -0.003341481 0.07521875 -0.10466817 0.02428338 -0.05351667 -0.023896858
0.102011636 0.04007551 0.09610729 0.010386229 0.046353564 0.093893304 0.12438069 -0.039871007
0.09453136 -0.019718423 0.124084115 0.11429891 0.066103324 -0.06209135 -0.07472232 -0.0039260536
0.08455746 -0.036919132 0.092786014 0.11754492 -0.039307654 -0.06616606 -0.003415674 0.080245495
-0.01859571 -0.07411201 -0.10910562 0.008089766 0.09271172 0.073355675 0.031201437 -0.062612966
0.023326933 -0.036871 -0.054132372 0.06843713 -0.09138255 -0.0792208 0.03851649 0.04559292
0.08861297 -0.041832432 -0.1102602 -0.013245776 0.026342556 0.0066429377 0.10357137 0.10015814
-0.00937444 0.03215678 0.09719753 0.030244097 -0.11666891 0.081952944 -0.039381623 -0.04158722
-0.10569993 0.00077553093 0.0074852854 0.07149619 -0.08548854 0.08062041 -0.04600662 0.109296575
0.086926535 -0.015012965 0.08439098 -0.09639679 -0.016414627 -0.12118685 0.023914233 -0.09560272
-0.12445533 -0.023235768 -0.12260482 -0.043275684 0.022221088 -0.11555998 -0.10274063 -0.091660425
-0.0387145 -0.005238995 -0.029352322 0.12069698 -0.03558974 -0.09597252 0.12064703 -0.030276641
-0.0862176 0.095822334 0.11644642 -0.075537995 -0.0161006 0.010653034 -0.0116728395 0.012116119
-0.06687987 0.00069080293 0.02603972 0.053482473 -0.10088943 -0.1183684 -0.074100435 -0.050186783
0.09525372 -0.013550222 0.09188205 0.08531076 0.093664795 0.063525245 0.06518133 0.09777062
0.015169501 -0.113775656 -0.024182945 -0.09335646 -0.11133653 0.11371228 -0.09552421 -0.0061003864
0.059647366 -0.044944316 -0.08792251 -0.06819548 0.0808505 -0.022205234 -0.056626707 -0.0010264665
-0.109283 -0.026640728 -0.0010719448 -0.12016539 0.10636157 -0.09290874 0.09687628 0.018080518
0.0470497 -9.2059374e-05 -0.01304622 0.035164684 0.086129054 0.086023524 -0.054653093 0.09629369
0.11797045 0.03263177 -0.08669211 0.07154594 -0.12177269 -0.07832071 0.058895692 0.07137501
-0.0032444 0.046248317 -0.012967303 -0.11888467 0.005690247 0.11324251 -0.05572702 0.1164664
0.09810656 0.07722199 0.06747395 -0.005904466 -0.051187143 -0.072435424 0.0031984448 -0.098298565
-0.0023087114 0.014687404 0.09802666 -0.020109028 -0.018960357 -0.035328224 -0.11112706 -0.018759832
0.008880541 -0.12270822 -0.026048392 0.054822862 -0.020842597 -0.049190685 -0.03234203 0.07985178

bias_hh_l0 f4 [256]
00000000: 7e0a dcbd 1ab8 9dbd 5898 ecbc e8d4 66bd
00000010: 2408 143d 9880 d83c 002a d23c 001d 8abb
00000020: c673 953d 00b6 5dba 36c2 f03d 2425 393d
00000030: 5688 9fbd d48b eebd 40f3 cf3d 149e a4bd
00000040: 30e7 d93c 5805 d73d 6cb1 22bd f090 d03d
00000050: b063 60bc c0b3 883c 8015 4dbb 9468 153d
00000060: 2012 333c e0c9 553d 888c b1bc 7af9 ab3d
00000070: 44fe 2dbd 2c33 e6bd ac3d 86bd 20c9 513c
00000080: d066 eebd b8ab 99bc 4c71 7ebd 10df a53c
00000090: b01e debc 0c07 e63d 0070 3ebd a2f6 fdbd
000000a0: 104e 9e3c dc4a 15bd 1ea5 ff3d e83c 593d
000000b0: 18e6 323d d8bd ffbc d895 a23c f04b 8e3c
000000c0: 7ec4 e9bd 06a2 da3d d444 1bbd 80c1 b1bb
000000d0: 3ec4 bf3d e003 c43b a457 e6bd 8045 23bb
000000e0: 8af2 e43d 00c4 d73d 4234 963d 1420 613d
000000f0: e0d5 b9bd 163e b93d d8b1 a93c dada f23d
00000100: 4a8d fd3d 6094 f0bb 9c32 923d 66bc cebd
00000110: ec28 f0bd 00db 323a d07f edbd ba30 e93d
00000120: 9879 f6bc 90cf 56bd e871 fcbc 987b 25bd
00000130: 8c3f 8a3d 08a7 f93c 5a0e bbbd 585f 88bc
00000140: 4069 733b e8ee a0bc f425 9cbd ea30 ce3d
00000150: 58b5 d23d 6a3e b93d e475 95bd 50cf 5b3c
00000160: 7080 6e3d 2cd3 283d f813 f23d 8070 573d
00000170: 7e2f e63d fa88 e83d 30b2 bc3c 4097 adbb
00000180: 9835 b93c ee44 883d 9813 713d 9a83 c93d
00000190: 80e5 c43b 1078 86bc 684d acbc 20be ca3d
000001a0: aac3 e43d 5e15 f03d e027 3a3d b66f a73d
000001b0: b83f c8bd 58a6 d93c 9649 983d 0070 a0b8
000001c0: da1f b23d 60f2 b6bc 0c2f ab3d 3411 d63d
000001d0: 2852 aa3c 28f5 3dbd 18c1 bd3d 0cda fe3d
000001e0: 2ef6 c3bd 88a5 babd c247 cf3d b6ce db3d
000001f0: 646c c43d 28db a0bd b0f0 7e3c ea13 a23d
00000200: 38d6 febc 1488 c53d be13 f5bd dcc6 7dbd
00000210: 38b8 ce3c d87d 9bbc e099 dabb e82e 8bbc
00000220: 2220 803d 1876 823d b2ce b83d 4266 883d
00000230: 08b1 903c 1011 213d e8e2 cc3d e0de 0cbd
00000240: ea85 abbd fa75 d53d f842 2e3d ac12 31bd
00000250: c03e 36bc 2895 76bd 80f5 f03a f0ca 2bbc
00000260: a484 8dbd 5848 e7bd fc97 ffbd 6ccc c6bd
00000270: f8cf bfbd 988f 3a3d 6068 01bc 826f c4bd
00000280: e0e9 69bc e806 b7bc a4ec 273d 883e 063d
00000290: 1c6e fabd 408f 1b3b b82f 6abd 5850 d7bc
000002a0: b2d4 99bd 0004 a63d 3058 a83d 6c0e 7c3d
000002b0: 50a2 c4bc 5243 c3bd 287f 93bd 867f d4bd
000002c0: 2c7f 513d f0f2 3b3c 80ff 31bc 00bb b6bd
000002d0: 90e0 babd f0b3 d6bd c095 d03b feb4 8fbd
000002e0: 26fb b6bd 5041 7ebc bc55 7d3d 4aac d9bd
000002f0: b41a 5abd 5c22 e3bd ec34 7e3d c0c6 eb3c
00000300: 2058 d23d f8da 7dbd b414 29bd 08e0 8bbd
00000310: d88e d0bd 7aa0 d83d 3c68 de3d 5c5c 6fbd
00000320: 3cb3 35bd 30b2 d6bc f057 bf3d e43b 073d
00000330: 2090 d73c 64c0 743d f493 bcbd 9457 4abd
00000340: 507a 0abc e08f 1c3d e0d1 f1bb a67a 9a3d
00000350: b4f1 86bd 6c97 c6bd a40e 8dbd 8447 2a3d
00000360: fc82 703d 26e3 93bd b64f ce3d cc33 3fbd
00000370: 26d4 bd3d aca1 51bd 2204 ed3d e6ff a5bd
00000380: 28fb 8d3c e8f9 ddbc 00d6 3d3c 1cc8 1abd
00000390: aa6f d7bd 808c 66bd b298 f6bd 50ae d6bc
000003a0: 5819 5e3d c0d5 67bc 76ff eabd d095 9f3d
000003b0: 902a 993d 6ec9 d33d 7003 c13d d8b7 e93d
000003c0: e8f4 d73d 147e 7c3d 8078 7abd 10e3 71bc
000003d0: 00ad 8e3d 82fe f8bd 0095 1b3d 08cc b23c
000003e0: 481d b6bd b021 8dbd ec2e a8bd 14c7 2abd
000003f0: 64bf 0ebd 20ae 5fbc d691 9abd 74dc efbd
-0.10744189 -0.0770113 -0.028881237 -0.056355387 0.036140576 0.026428506 0.025654793 -0.004214883
0.07297473 -0.0008457601 0.11755793 0.045201436 -0.07789676 -0.11647764 0.10153818 -0.080379635
0.026599497 0.10499066 -0.039719984 0.10183895 -0.013695642 0.016687274 -0.0031293333 0.036476687
0.010929614 0.052194476 -0.021673456 0.08397193 -0.042478815 -0.11240229 -0.06554732 0.0128043
-0.11640704 -0.01875864 -0.062119767 0.020247966 -0.027114242 0.11231813 -0.04649353 -0.12400557
0.019324332 -0.036448345 0.124826655 0.0530366 0.043676466 -0.031218454 0.019846842 0.017370194
-0.11414431 0.10675435 -0.037907436 -0.0054246783 0.09363602 0.0059819072 -0.11247185 -0.0024913251
0.11179073 0.10535431 0.07334186 0.054962233 -0.090739965 0.09045045 0.020714685 0.11858149
0.123804644 -0.0073419064 0.07138559 -0.10094528 -0.11726555 0.00068227947 -0.11596644 0.11386247
-0.030087277 -0.05244404 -0.030816033 -0.04040107 0.06750402 0.030475155 -0.09133597 -0.016647026
0.0037141591 -0.01964517 -0.076244265 0.10067923 0.10288495 0.09045108 -0.072978765 0.013416126
0.058227956 0.041217014 0.11820215 0.052597523 0.11239527 0.11354251 0.023034185 -0.0052975714
0.022608563 0.06653772 0.058856577 0.09839554 0.006008804 -0.016414672 -0.021033004 0.09899545
0.111701325 0.117228255 0.045448184 0.08175604 -0.097777784 0.026568577 0.074359104 -7.650256e-05
0.086974815 -0.02233237 0.08358583 0.104525 0.020791128 -0.046376377 0.09265345 0.12443933
-0.095684394 -0.09113604 0.101211086 0.10732786 0.09590986 -0.07854301 0.015560314 0.079139546
-0.031108007 0.096450955 -0.11966656 -0.061957225 0.025234327 -0.018980905 -0.0066711754 -0.01699014
0.06256129 0.06370181 0.09023799 0.06660129 0.01766254 0.039322913 0.100042164 -0.034392238
-0.083751515 0.10422893 0.042544335 -0.043230698 -0.011123359 -0.06020084 0.0018383712 -0.010485396
-0.06910065 -0.11293095 -0.124801606 -0.09706959 -0.09365839 0.045547098 -0.00789842 -0.09591581
-0.014276952 -0.02234216 0.040997162 0.03277448 -0.12228033 0.0023736507 -0.057174414 -0.026283428
-0.075112715 0.08106232 0.082199454 0.06153719 -0.024003178 -0.09534325 -0.072019875 -0.10375886
0.05114667 0.011471495 -0.010864139 -0.08922386 -0.09124863 -0.10483539 0.006365508 -0.070169434
-0.089346215 -0.015518501 0.06184934 -0.10628565 -0.053248122 -0.11090538 0.06206219 0.028781295
0.10270715 -0.061976403 -0.04127951 -0.0682984 -0.10183495 0.105774835 0.10859725 -0.05843769
-0.044360384 -0.026208013 0.093429446 0.0330161 0.026313841 0.05975379 -0.09207907 -0.049399927
-0.008452013 0.038223147 -0.0073797554 0.075429246 -0.0658907 -0.0969685 -0.06887558 0.04157211
0.058718666 -0.072210595 0.100737974 -0.046680257 0.0926898 -0.051179573 0.11573054 -0.081054494
0.017331675 -0.027096704 0.011586666 -0.037788495 -0.10519345 -0.056286335 -0.12040843 -0.026206166
0.05422339 -0.014150083 -0.114745066 0.07792246 0.07478821 0.10341154 0.09424484 0.114120185
0.10544759 0.061643675 -0.061150074 -0.014763609 0.06966591 -0.121579185 0.037983894 0.021825805
-0.08892304 -0.06891191 -0.08212075 -0.041693762 -0.034850493 -0.0136523545 -0.07547347 -0.1171197
