models/Sepsis_BDLSTM_model.pth (torch, 386418 bytes, 11 tensors)

weight_ih_l0 f4 [256, 40]
000000 50 de 7a 3d 02 18 f8 bd c8 2e b2 3c f0 d4 d7 bc
       0.06124717 -0.12113954 0.021750823 -0.026346654
000010 40 5e cc 3c 0a 6b a5 bd d2 17 fc 3d 36 b4 aa bd
       0.024947286 -0.08077057 0.12309231 -0.08335154
000020 4c 86 d4 3d 7c 18 10 bd 82 a6 a7 bd 58 32 8c bd
       0.103771776 -0.0351796 -0.08186056 -0.0684554
000030 1c c9 77 bd b4 ca 9e bd e8 45 f7 3c 9a 0b e3 bd
       -0.060494527 -0.07753506 0.030184701 -0.11086197
000040 00 8b b9 bc 44 c1 ce 3d b8 97 c6 3c 2c d0 15 bd
       -0.022649288 0.10095456 0.024242267 -0.03657548
000050 20 36 8c 3d 10 c3 77 bc 00 ec 75 3c 38 94 a1 3d
       0.06846261 -0.01512219 0.01500988 0.078895986
000060 92 0f f1 bd 00 62 21 3c 90 3a 6c 3d 6a 4e ba bd
       -0.11770548 0.009850025 0.057673037 -0.090969875
000070 e6 62 e6 3d 5e b3 8a bd 10 91 b1 bd ea 49 e9 3d
       0.11249332 -0.06772493 -0.086702466 0.11391051
000080 86 36 db bd 78 13 08 3d f6 cf b9 bd 84 76 fa bd
       -0.10703759 0.03322169 -0.090728685 -0.12229636
000090 de 62 82 3d 48 7d 7f 3d 00 16 66 bc 7e 74 e9 bd
       0.06366514 0.062375337 -0.014043331 -0.11399172
0000a0 94 e2 82 bd 1e 38 d0 3d 70 13 65 3d b4 c9 6b bd
       -0.063908726 0.101669535 0.05592674 -0.057565406
0000b0 2a fc b3 3d 94 85 79 3d 2a 8a 91 3d 2a 52 c0 3d
       0.08788331 0.060918406 0.07106431 0.093906716
0000c0 2c c1 72 bd 60 92 0d 3c 50 0d 99 bd 60 1a 6d bd
       -0.059266254 0.008640856 -0.07473242 -0.05788648
0000d0 92 c2 f5 3d 8c c1 39 3d cc 50 20 3d 78 7d f3 3c
       0.12000002 0.045350596 0.039139554 0.029722914
0000e0 40 f1 ae bd 10 d2 a4 3d 1c 7f 30 3d 5a eb a8 3d
       -0.085421085 0.08047879 0.04308997 0.08248015
0000f0 30 fc d0 bc 56 bb af bd d6 0b 90 bd 40 3e 16 bd
       -0.025510877 -0.08580653 -0.070335075 -0.03668046
000100 b0 d4 4d bc 56 c3 8d 3d 24 83 95 bd 92 13 c3 bd
       -0.012562916 0.06922023 -0.07300404 -0.09525217
000110 78 3c c4 3c ac 18 2f 3d 9c 9f 37 bd 8a 3b 9b 3d
       0.023954615 0.04274814 -0.04482995 0.075797155
000120 d8 2e f8 3c 26 b4 d0 3d cc 0a 1e bd 9c 48 e9 3d
       0.030295774 0.101906106 -0.038584515 0.11390802
000130 d0 69 3d bd e6 81 f4 bd a4 42 58 bd ba bd d8 3d
       -0.04624349 -0.11938839 -0.05279793 0.105830625
000140 c8 18 13 3d e0 d6 85 3b 24 f9 3d 3d 52 fa 82 bd
       0.035912305 0.004084453 0.046380177 -0.06395401
000150 60 1e 91 bb 5e bf a1 bd 60 95 44 3c 98 79 33 3d
       -0.00442867 -0.078978285 0.011998504 0.043817133
000160 a0 b5 03 3c 70 96 d0 bc 9e 69 c1 bd 8a 30 c0 bd
       0.008038908 -0.02546236 -0.09443973 -0.09384258
000170 ea 95 ca bd bc 34 ba 3d 24 be 40 3d cc 95 66 3d
       -0.09891875 0.090920895 0.047056332 0.0562952
000180 f4 b9 94 3d 90 17 2e bc 18 b3 e8 3d 6c 75 04 bd
       0.0726203 -0.010625735 0.113622844 -0.032338545
000190 e0 c7 a0 3d a0 31 87 3c 70 f1 71 3c 42 58 b9 bd
       0.07850623 0.016503155 0.014767036 -0.09050037
0001a0 e8 aa 0c bd 88 bc 7a bd c8 30 37 3d 74 86 59 3d
       -0.034342676 -0.061214954 0.044724256 0.05310674
0001b0 88 1d 18 bd 2e 24 a0 3d 86 67 fc 3d c8 e6 cf bd
       -0.03713754 0.07819401 0.12324433 -0.1015144
0001c0 e8 f6 71 3d 98 e5 76 bd 38 ad b2 3c 58 fd be bd
       0.05907336 -0.06027755 0.021811113 -0.09325665
0001d0 80 9e 7d bb 54 97 6f 3d 8e 8e e6 bd c8 1f 9b 3c
       -0.003869921 0.058493927 -0.11257659 0.018936053
0001e0 50 a8 e3 3c 70 d6 a2 3c 50 43 4b 3c 66 dc a6 bd
       0.027790219 0.019877642 0.012406185 -0.081475064
0001f0 c4 78 cc bd 60 c4 c5 bc 90 d6 6c 3c 8e b5 c2 bd
       -0.09983972 -0.02414149 0.014455453 -0.09507285
000200 e0 36 ac bb 98 8a bb 3c 1a d2 a1 3d d6 7d af bd
       -0.005255565 0.022893235 0.07901402 -0.08568923
000210 18 33 04 bd a8 a9 87 bd 80 86 bf 3c 20 fe 42 3d
       -0.03227529 -0.06624156 0.023379564 0.047605634
000220 50 0e 31 bc 9c d3 19 bd 44 07 bb bd fc 33 38 bd
       -0.010806635 -0.037555322 -0.09132245 -0.04497145
000230 e8 83 e8 3d c8 0e a4 3c c8 6e ab 3d 78 dc 3f 3d
       0.11353284 0.02002658 0.08370739 0.046841115
000240 1c fe c2 3d 00 d8 24 3d f2 58 9f 3d 40 40 ac 3b
       0.09521124 0.040245056 0.07780637 0.0052566826
000250 a8 22 3e 3d 40 bd e8 3d ac 67 c5 bd 04 7a 3d bd
       0.04641977 0.113642216 -0.096389145 -0.04625894
000260 ba ff c1 bd f2 6e 98 3d fa e7 e4 bd e8 85 db 3d
       -0.09472604 0.07443036 -0.111770585 0.107189
000270 da 26 f2 bd 00 c9 00 bd 70 65 ae bd 48 49 99 3d
       -0.118238166 -0.03144169 -0.085154414 0.074846804
000280 b4 28 3b 3d d0 14 db bc e6 bd ef bd 08 ef ed 3c
       0.045693114 -0.026743323 -0.11706142 0.029044643
000290 72 26 c5 bd 54 63 cf bd fa ef 8e 3d 32 25 be bd
       -0.096264735 -0.10126367 0.06979366 -0.09284438
0002a0 74 2e 5b bd 34 f9 92 bd 18 84 04 3d 4e bf c6 bd
       -0.053511098 -0.07176438 0.032352537 -0.09704457
0002b0 4e f2 f8 bd e6 8e bb bd 2e 99 d2 bd 04 48 8e 3d
       -0.12155591 -0.09158115 -0.10283123 0.0694733
0002c0 6c 64 75 bd c0 e3 12 bb e0 97 95 3d f0 25 c2 3c
       -0.059910223 -0.0022413582 0.073043585 0.02369973
0002d0 cc fd 89 bd 9c 82 d0 3d 30 0f 58 3d f4 1d 44 bd
       -0.06737861 0.10181162 0.05274886 -0.047880128
0002e0 7e 20 b5 3d 3c 6c fb bd 60 a6 b8 bc d4 6e b9 3d
       0.08844088 -0.122765034 -0.022540271 0.09054342
0002f0 fa 9c b8 bd e4 5e b8 bd f0 69 dc 3d 40 9d b1 bb
       -0.09014316 -0.09002474 0.107623935 -0.005420357
000300 3a 4d ae bd a0 f3 6e bc bc ed 80 3d d4 22 52 3d
       -0.085108235 -0.014584452 0.06295344 0.051302746
000310 98 f8 02 bd b0 3e cf 3c f8 9b fe bd 78 45 1a 3d
       -0.03197536 0.025298446 -0.124320924 0.037663907
000320 58 7a ee 3c 2e 21 dd 3d 80 50 e8 ba 68 a8 8c bd
       0.029111072 0.10797344 -0.0017724186 -0.068680584
000330 1e d5 df 3d ec ed 07 3d 88 78 9f 3c cc 08 9b bd
       0.10929321 0.033185884 0.019466653 -0.07570037
000340 38 76 d4 bc 28 71 7a 3d f4 9f 79 bd 7c cb 3e bd
       -0.025935277 0.06114307 -0.06094356 -0.046580777
000350 70 14 ff bd 00 e2 91 bd 76 52 84 3d f4 69 ba bd
       -0.1245507 -0.07123184 0.06461041 -0.0910224
000360 64 24 92 3d 40 cc 81 3d 48 9f db 3d 5e 8a db 3d
       0.07135847 0.06337786 0.1072374 0.10719751
000370 f8 b9 cf bd 3a ac b6 3d 68 9a f8 bc 74 78 15 3d
       -0.101428926 0.08919568 -0.030347064 0.036491826
000380 fc 41 a6 3d 64 1e 0a 3d 08 ec 50 bd a0 ea cf bc
       0.08118054 0.03372039 -0.051006347 -0.025380433
000390 24 eb d0 3d e8 86 ee bd 42 f3 d3 3d 38 69 f3 3c
       0.102010995 -0.11646825 0.10349132 0.029713258
0003a0 86 e4 bb 3d 20 a0 c0 bb 80 fd 64 3b d0 2d e4 3d
       0.09174447 -0.0058784634 0.0034941137 0.111415505
0003b0 b8 fa 59 bd ee 44 d6 3d 44 51 f4 bd 68 b3 31 bd
       -0.05321762 0.10462366 -0.11929563 -0.043383986
0003c0 94 bd 0f bd c4 74 57 3d b4 ff 8c bd e8 91 9f 3d
       -0.035092905 0.05260159 -0.06884709 0.07791501
0003d0 58 e8 65 3d e0 a9 a4 bb 50 4e a0 3d b2 93 f8 3d
       0.056129783 -0.0050251335 0.07827437 0.12137546
0003e0 2c e1 07 3d 68 d8 91 3c ca e3 f1 bd 28 70 f8 bc
       0.033173725 0.017803386 -0.118110254 -0.030326918
0003f0 0c 92 fc 3d be 9f dc 3d 92 96 87 3d 00 ea c4 bb
       0.12332544 0.10772656 0.06620516 -0.0060093403

weight_hh_l0 f4 [256, 64]
000000 70 74 0e bd ea e8 bc 3d d0 61 b2 bd 10 3b c8 bc
       -0.034779012 0.09224112 -0.087100625 -0.024442226
000010 bc 73 45 bd 64 42 25 bd 30 27 ed bc 22 55 f5 3d
       -0.048206076 -0.04034652 -0.02894935 0.119791284
000020 6e 12 b2 bd 3c 82 95 bd ac 4e fe bd 60 ff 00 bd
       -0.086949214 -0.07300231 -0.12417349 -0.031493545
000030 b0 4e 3f 3d 90 c7 d5 bc be 04 bb 3d 1a 86 c6 bd
       0.0467059 -0.026096135 0.09131764 -0.096935466
000040 9c 8c b3 3d 54 2f ea bd 98 27 e3 bd 5c d4 e5 3d
       0.087670535 -0.114348084 -0.11091536 0.11222145
000050 54 ce c6 3d 18 b6 42 3d ec 47 b1 bd ac 06 d9 bd
       0.09707323 0.04753694 -0.08656296 -0.10596976
000060 30 b4 ca bc 14 d5 8c bd 8a 47 de bd a6 4d ee 3d
       -0.024744123 -0.06876579 -0.10853489 0.11635904
000070 60 f5 04 bd 50 43 a2 3c 40 80 fc 3d e2 5b fd 3d
       -0.03246057 0.019807488 0.12329149 0.12371041
000080 4c f4 2c bd 50 37 fd bc 06 b2 d2 3d 60 34 36 3d
       -0.042225167 -0.030910164 0.102878615 0.044483542
000090 9a 6f b0 bd e0 54 96 bc 70 d4 9c 3d 00 62 84 bd
       -0.08615036 -0.018351018 0.07657707 -0.064640045
0000a0 2e bf fe 3d c8 b6 a6 3c e4 bf aa bd f8 59 54 bd
       0.124388084 0.020350829 -0.083373815 -0.051843613
0000b0 b8 32 d7 bd 18 9d a9 3d 64 79 a1 bd d8 be 61 3d
       -0.10507721 0.082819164 -0.078844815 0.055113643
0000c0 48 b5 29 3d 48 26 a3 3c 1c 97 87 3d 96 91 e3 3d
       0.04143265 0.019915715 0.06620619 0.11111753
0000d0 32 af 95 bd c0 d8 8b 3b c0 0a 2c bd 78 86 a8 bc
       -0.073088065 0.004267782 -0.04200244 -0.020571932
0000e0 c0 a9 7c 3b 64 bf f9 3d c8 bb e4 bd 5a b8 f6 3d
       0.0038553327 0.12194708 -0.11168629 0.12046881
0000f0 9e d7 80 3d 0c ce 49 bd f0 e5 0d bc 10 37 01 bd
       0.06291126 -0.049268767 -0.008660778 -0.031546652
000100 50 13 c0 bc d0 c7 cd 3c 50 fc 3d bc 3c 16 62 bd
       -0.023446709 0.025119692 -0.0115958005 -0.055196986
000110 d0 a2 7d 3d 58 0f 3f bd e4 c9 f8 bd d0 fa e4 bd
       0.06192285 -0.046645492 -0.121478826 -0.11180651
000120 ac e8 a3 3d 90 fa 9e bd 78 39 ce bc 82 c3 ee bd
       0.08003363 -0.07762635 -0.025173888 -0.11658384
000130 2a 2e d3 bd 00 e4 b8 b9 7a 67 ac bd 84 ab 27 bd
       -0.103115395 -0.00035265088 -0.08418174 -0.040935054
000140 7c 2a 9c 3d 20 df 02 bd 8e 81 d4 3d 58 a2 86 3d
       0.07625291 -0.03195107 0.10376273 0.06573933
000150 10 93 33 bd 90 66 eb bd 00 6e 97 bb 6e 33 c9 bd
       -0.04384142 -0.114941716 -0.0046212673 -0.098242626
000160 e0 3e f2 bd ac d1 28 3d 3e b8 d6 bd 00 95 38 bd
       -0.11828399 0.041215584 -0.1048436 -0.045063972
000170 52 7d 86 3d 90 13 0a 3c 20 40 6a bc dc 12 93 bd
       0.06566872 0.008427516 -0.014297515 -0.071813315
000180 1a 7b ff bd 00 1a b5 bc cc 81 01 3d be 8e ac 3d
       -0.12474652 -0.022107124 0.031617925 0.084256634
000190 28 4f 9f bd b2 ab c2 bd 12 b9 fa 3d 48 36 e1 3c
       -0.0777877 -0.095054045 0.122423306 0.027491704
0001a0 be 0c 8c 3d 7e ba a1 3d 78 d4 da 3c 60 08 a5 bc
       0.06838368 0.07896899 0.026712641 -0.020145595
0001b0 9e 63 a6 bd 2c 1b 30 bd 3a 0e e8 bd f4 08 f5 bd
       -0.08124469 -0.042994663 -0.113308385 -0.11964598
0001c0 fc d2 b8 3d 46 5e fd bd 8c 41 ea bd 68 49 ce bd
       0.09024617 -0.12371497 -0.11438283 -0.10072595
0001d0 4c 2f e7 bd 88 89 b4 bc 30 74 cd bd 84 98 cc 3d
       -0.11288318 -0.022038236 -0.10031927 0.099900275
0001e0 ac 75 7d 3d e0 2d 19 3d 2e c8 d7 3d f4 0c f9 bd
       0.0618798 0.037397265 0.10536228 -0.12160674
0001f0 64 eb 57 3d 7e 87 90 bd 00 7c 02 3b 00 77 75 3b
       0.05271472 -0.07057093 0.0019910336 0.0037454963
000200 18 3d d0 bd 90 6d 1c 3d 30 79 5d 3c b8 07 da 3c
       -0.10167903 0.038190424 0.013517663 0.026615009
000210 86 e3 bb bd 50 96 83 3d 70 e6 d5 bc dc bb e1 bd
       -0.09174256 0.06425154 -0.026110858 -0.110221595
000220 50 b8 5d 3d 24 6c 25 bd 58 41 3c 3d 58 13 db 3c
       0.054130852 -0.040386334 0.045960754 0.026742622
000230 f2 7f bf bd a0 75 c9 bd ac c4 26 bd 8e a4 92 3d
       -0.093505755 -0.09836888 -0.040714905 0.071602926
000240 e0 0d d7 bd 44 be 8f 3d f0 9f 01 bd 38 7d 26 3d
       -0.10500693 0.07018712 -0.03164667 0.04064676
000250 68 74 98 bd 3c 47 34 bd d8 ee ec 3d a6 79 bb bd
       -0.07444078 -0.044013247 0.11568993 -0.09154062
000260 3e cd 91 bd 82 bd f0 3d c4 e0 84 bd e6 49 e8 3d
       -0.07119225 0.11754896 -0.06488183 0.1134222
000270 5c 90 56 3d b0 8b 4e 3c a4 0c 85 bd ea c4 a5 bd
       0.052383766 0.012606546 -0.06496552 -0.08094199
000280 80 16 bb 3d e0 52 b6 bd 18 7d af bc 74 a1 c6 bd
       0.09135151 -0.08902526 -0.021421954 -0.096987635
000290 84 ab 65 bd e4 37 c8 3d 20 a0 a9 bb 38 f6 fe 3c
       -0.056071773 0.09776285 -0.005176559 0.031123266
0002a0 42 c5 ea bd 94 5c f3 3d 28 10 29 3d f8 dd aa bd
       -0.11463405 0.11882892 0.041275173 -0.083431184
0002b0 c8 c8 64 bd 08 fa df 3d a2 2f 86 3d b6 a0 83 3d
       -0.055855542 0.109363616 0.06552054 0.064271376
0002c0 32 5e e9 bd 44 8e e9 bd ba 45 8b 3d 7c c0 ff bd
       -0.113949195 -0.11404088 0.06800409 -0.12487885
0002d0 f0 7b 01 3c 68 4b b5 3d fe 66 b1 3d 60 b4 52 bc
       0.007903084 0.08852273 0.08662222 -0.012860388
0002e0 08 a3 6a 3d 18 d1 e8 3c 40 af 29 3b c8 fc 17 bd
       0.057284385 0.028420016 0.002589181 -0.037106305
0002f0 24 21 9a 3d 08 9a ce bc 24 15 cc bd dc ad fb bd
       0.07525852 -0.025219932 -0.0996497 -0.122890204
000300 14 85 04 3d 34 d9 eb bd ac b8 1e 3d 10 d4 97 3d
       0.032353476 -0.115160376 0.038750336 0.074134946
000310 cc 4e 8c 3d 9c 2a 90 3d 54 3e 5a bd 10 ea c1 3d
       0.06850967 0.07039377 -0.053282097 0.09468472
000320 90 9c e3 bc e0 29 c9 3c c6 3b af bd e0 97 d0 3b
       -0.027784616 0.0245561 -0.08556323 0.006365761
000330 b4 f0 1d 3d f2 26 db 3d 80 af fe 3b 88 b7 99 bc
       0.03855963 0.107007876 0.007772386 -0.018764272
000340 58 b3 85 bc 18 6e fb 3c c8 6d ff bd 8c 91 bb 3d
       -0.01632087 0.030692145 -0.12472111 0.0915862
000350 ca fd 89 3d 60 15 ba bd 70 93 77 bd 8c 67 e1 3d
       0.067378595 -0.09086108 -0.06044334 0.11006078
000360 04 ea 95 3d 9a a2 ea bd 9c 1c bf bd a6 48 db bd
       0.073200256 -0.11456795 -0.09331629 -0.10707216
000370 9c 03 37 3d 50 ed 8f 3d 24 ea 1a 3d e0 0a 24 bc
       0.044681177 0.07027686 0.03782095 -0.010012358
000380 8c d6 e1 bd 80 86 1d 3c 94 e2 5a bd 4a ad c3 3d
       -0.1102725 0.009614587 -0.053438738 0.09554537
000390 7c bf da 3d 9c 04 cf bd 1a 71 b7 3d fa 6e f6 bd
       0.10681054 -0.10108301 0.08957119 -0.12032886
0003a0 34 84 36 bd 34 26 69 3d a0 48 8f 3d a0 2d 5c bc
       -0.044559672 0.0569212 0.06996274 -0.013438612
0003b0 e6 8b b8 bd 14 61 33 bd 9e 9d cf bd e6 73 8b 3d
       -0.090110585 -0.043793753 -0.10137485 0.06809215
0003c0 70 07 8d bd b2 3d 80 3d ec 7f 26 bd 8a 83 ef bd
       -0.06886184 0.062617674 -0.04064934 -0.11695011
0003d0 14 bd 9e bd 4e b2 9a bd 78 de 11 bd 00 32 b8 39
       -0.077509075 -0.0755354 -0.035612553 0.00035132468
0003e0 50 af 06 bc a0 ea ab 3b 50 4a df 3c 10 21 79 3c
       -0.008220509 0.0052464753 0.027257115 0.015205637
0003f0 e0 a3 87 bb b4 d9 b3 3d 52 a8 bf 3d 82 da c4 3d
       -0.0041394085 0.08781758 0.093582764 0.096119896

bias_ih_l0 f4 [256]
000000 d4 1e 44 3d f0 22 b8 3c c0 00 07 bc 18 9e ab bc
       0.047880962 0.022477597 -0.008239925 -0.020949408
000010 22 d4 fe bd c0 77 23 3b e0 80 a8 3d 98 23 93 3c
       -0.12442805 0.0024943203 0.08227706 0.017961308
000020 36 5d e0 3d 08 22 c6 3d 68 0c f7 bd ca 59 b7 bd
       0.109552786 0.0967446 -0.12062913 -0.08952673
000030 d8 09 44 3d 98 f3 ca 3d 24 9c 09 bd 4c 8c be bd
       0.04786095 0.09909743 -0.033596173 -0.09304103
000040 10 1a e5 3c 9a 06 f5 bd 8c c2 2b 3d 74 75 66 3d
       0.02796653 -0.1196415 0.04193358 0.056264356
000050 d8 d5 d5 bd e4 39 b1 bd d6 1a d7 3d 34 54 3c 3d
       -0.10441178 -0.0865362 0.105031654 0.04597874
000060 08 a5 36 3d d0 42 af bc da ed 85 bd 1c 9e 6d bd
       0.04459098 -0.021394163 -0.06539507 -0.058012113
000070 96 99 f6 3d 20 74 8e 3c 70 ff 23 bc 12 7b a8 bd
       0.12041013 0.017389357 -0.0100096315 -0.08226599
000080 80 a1 41 3b 78 85 ef 3c 00 7f c5 3a 5c 7e 00 bd
       0.0029545724 0.029238448 0.0015067756 -0.031370506
000090 40 fe a7 3b 50 34 1e 3c a6 68 d7 3d 40 0f db bb
       0.0051267445 0.009656027 0.10518007 -0.0066851676
0000a0 ec 44 4e 3d 5e c5 9b bd b0 ad fe bc c4 0e 07 bd
       0.050358698 -0.07606004 -0.03108868 -0.032973066
0000b0 68 3d e8 bc 00 7d 9d ba fa d0 f0 bd 30 2f 83 bd
       -0.028349593 -0.0012015402 -0.11758609 -0.06405485
0000c0 5c d1 23 3d 64 7f 26 3d 22 cb c8 3d fc 7f 2b bd
       0.039994583 0.040648833 0.098043695 -0.041870102
0000d0 00 33 37 3b ac e8 0f bd c0 98 12 3d ae da 8f bd
       0.0027953982 -0.035134003 0.035790205 -0.07024132
0000e0 1c ad e0 3d 8c dc fc bd 08 1b c2 3d c0 1c 0b bc
       0.10970518 -0.123467535 0.09477812 -0.008490741
0000f0 68 84 96 3d 7c f0 c6 bd 36 07 a3 3d 60 50 4d bc
       0.07349473 -0.097138375 0.0796036 -0.01253137
000100 f4 24 96 bd 5a ce fa 3d 3a 75 ff bd b0 14 5a bc
       -0.07331267 0.1224639 -0.12473531 -0.013310596
000110 a0 08 58 3c e0 7c 93 bc 90 63 31 3d 98 18 65 bd
       0.01318565 -0.018003881 0.04330784 -0.055931658
000120 40 b8 45 3d 40 7c c1 3d 8c 1f 9c bd e4 2a 95 3d
       0.048271418 0.09447527 -0.076232046 0.07283571
000130 dc f3 17 bd e8 d9 a5 3c 64 f1 9c bd 12 df d9 3d
       -0.037097797 0.020245507 -0.07663229 0.106382504
000140 66 5c c5 bd e8 df 51 bd 60 3a 8d bd 80 46 50 3d
       -0.09636764 -0.051238924 -0.068959 0.050848484
000150 18 fe 73 bd 38 30 40 bd be d5 d5 3d cc db e7 bd
       -0.059568495 -0.046920985 0.10441159 -0.1132122
000160 ec 15 11 3d a8 7d d2 3d 6a c2 ea 3d e0 21 28 3c
       0.035421297 0.10277873 0.11462863 0.010261983
000170 ec 11 4c bd 62 7f db bd 0a 48 8e bd 0a 67 ba 3d
       -0.04982178 -0.10717656 -0.06947334 0.091016844
000180 00 3e 10 ba f8 68 6b 3d a0 b9 0b bc 40 89 7c bd
       -0.0005502403 0.057473153 -0.008528143 -0.06165433
000190 7a e4 f6 bd f0 d2 dd bc 58 ae 62 3d 44 52 52 3d
       -0.12055297 -0.027078122 0.05534205 0.051347986
0001a0 5c 6b 3d 3d 5c 36 77 bd a0 4f e7 bb b2 e5 fc 3d
       0.046244964 -0.060354576 -0.0070590526 0.123484984
0001b0 18 11 04 bd 86 ee e5 3d 54 5b d4 3d 80 79 7e 3b
       -0.032242864 0.11227135 0.10368982 0.0038829744
0001c0 58 3e 75 3d 7a 97 c7 bd d0 93 1e bc 78 99 e0 bc
       0.05987391 -0.09745689 -0.009678796 -0.02741693
0001d0 ec a9 e2 3d c0 b5 4a bc c0 9b 6f bb c8 49 da bc
       0.11067566 -0.012372434 -0.003656134 -0.02664651
0001e0 40 b1 f3 bc 32 8b ca 3d 24 02 0e 3d bc a3 c3 3d
       -0.029747605 0.09889831 0.03467001 0.09552714
0001f0 ac 27 44 3d 68 3d bc 3d 24 a7 0a bd 10 b3 ef bc
       0.047889397 0.091914 -0.033850804 -0.029260188
000200 a8 91 18 3d 44 d3 7d bd 44 a9 42 bd 64 b3 6d bd
       0.037248284 -0.061969057 -0.047524706 -0.05803241
000210 2e e5 f8 bd d8 94 23 3d 6e e3 a5 3d f0 b5 29 3d
       -0.121530876 0.03993687 0.081000194 0.041433275
000220 b2 73 d3 3d 58 f8 23 3d 4c a7 a4 3d 0a 04 d0 bd
       0.103248015 0.04003176 0.08039722 -0.101570204
000230 00 a1 14 ba d0 3c 1a bc 08 a2 98 bd de 3c b9 bd
       -0.0005669743 -0.009413913 -0.0745278 -0.090448126
000240 b0 98 d4 bc b0 6b 17 3d 78 13 fe bc 9c 6b 53 bd
       -0.025951713 0.036967933 -0.031015143 -0.051616296
000250 f4 c8 a5 3d 7c 87 e6 3d 24 a5 12 bd 80 f5 ca bd
       0.080949694 0.1125631 -0.03580202 -0.09910107
000260 e8 d4 81 3c 20 38 f9 3d 68 2a 11 3d 64 2a ba bd
       0.015848592 0.12168908 0.035440832 -0.090901166
000270 ca 3d ee bd e0 81 97 bd b4 65 50 3d c8 67 df 3c
       -0.11632879 -0.073978186 0.05087824 0.027271166
000280 cc e7 1d 3d 40 df 6b bb 50 4f 28 bc c0 39 1d 3c
       0.038551137 -0.0035991222 -0.010272816 0.009596288
000290 5a f2 b7 3d e0 dc 29 bd 7e 69 d2 3d c6 0f 86 bd
       0.08981772 -0.04147041 0.10274027 -0.06545977
0002a0 70 6b 5b bd 00 cb fb bd 38 70 42 bd 98 57 69 bd
       -0.053569257 -0.122945786 -0.0474703 -0.0569683
0002b0 88 89 67 3d 5a 59 a9 bd c0 72 c6 bb 1e bb f0 bd
       0.056527644 -0.082689956 -0.0060561597 -0.1175444
0002c0 a0 ad d9 3c cc 07 0d bd 24 98 cf 3d 96 77 e4 3d
       0.026572049 -0.034431264 0.101364404 0.11155622
0002d0 70 c8 c9 3d 18 4c a0 3d 78 e7 9b bd 48 2e de bc
       0.098526835 0.07827014 -0.076125085 -0.027121678
0002e0 ba 5f b8 3d 56 78 86 3d 16 af c2 bd e0 b1 f6 bd
       0.090026334 0.06565921 -0.09506051 -0.12045646
0002f0 d0 57 38 bc 10 d7 87 3d 8c 34 e9 bd 6c 93 53 bd
       -0.011251405 0.06632817 -0.11386976 -0.051654264
000300 38 f8 e1 3c ae 27 f4 3d 00 c7 9f 3b a0 39 98 3c
       0.02758418 0.11921631 0.0048760176 0.018582165
000310 be 55 86 bd 98 e8 08 bd d2 30 ae 3d dc e3 27 bd
       -0.06559323 -0.033424944 0.085054055 -0.040988788
000320 d2 a6 d6 3d 7c e0 37 3d 78 d1 a8 bd c0 5c 2f bd
       0.10481037 0.04489182 -0.08243078 -0.042813063
000330 f8 2b a9 3c 1a b0 c2 bd b2 e1 90 3d 24 45 5d 3d
       0.020650849 -0.09506245 0.07074298 0.054021016
000340 3c a1 22 3d 86 4b a6 3d b8 49 ef bd 58 70 72 bd
       0.039704546 0.08119874 -0.116839826 -0.05918917
000350 a8 b4 fe bc 94 52 a1 bd 0c 38 7f bd 7c 99 00 bd
       -0.031092003 -0.07877079 -0.06230931 -0.031396374
000360 50 75 65 bc 88 19 5f 3d 44 c0 1b 3d 50 97 cc 3c
       -0.01400502 0.054467708 0.038025156 0.024974495
000370 5c 71 1d 3d 0c 98 f1 3d de c0 cd bd 68 b1 c4 3d
       0.038438186 0.11796579 -0.10046552 0.0960415
000380 8c 14 4c 3d 40 c3 f2 bb 40 a9 44 3d 98 0e 80 3c
       0.049824283 -0.0074085295 0.048012972 0.015631959
000390 00 a4 2f ba b2 38 d1 3d 6a 3b 99 3d 20 62 9f bb
       -0.0006700158 0.10215892 0.074820355 -0.0048639923
0003a0 78 fd a6 bc 8e fc d9 bd 80 06 e3 3c 20 e7 ba 3c
       -0.020384535 -0.10643874 0.02771306 0.022815287
0003b0 80 0f 76 3d c4 f9 3e bd 18 66 17 bd c4 94 65 bd
       0.060073376 -0.046624914 -0.0369626 -0.056050077
0003c0 74 be bc 3d a8 d7 f1 bc 30 59 4e bd f8 05 d4 bc
       0.092160136 -0.029521778 -0.050378025 -0.025881752
0003d0 e8 1f 84 bd 28 b0 8a 3d da f0 d7 bd 3a ac d9 3d
       -0.06451398 0.067718804 -0.10543986 0.10628553
0003e0 60 44 ea 3d 94 91 8f 3d 74 80 a5 3d d4 b3 21 bd
       0.11438823 0.07010189 0.08081141 -0.039478138
0003f0 34 03 89 3d f0 e6 d4 3d 30 fd 88 bd 7c d5 1c bd
       0.06690064 0.1039561 -0.06688917 -0.038289532

bias_hh_l0 f4 [256]
000000 60 28 62 bc 0c 84 ce bd d0 71 23 bd 50 12 20 bd
       -0.013803571 -0.1008378 -0.039903462 -0.039079964
000010 3c 31 ec bd 38 87 4f bd 08 53 50 3d 10 25 55 bd
       -0.11532828 -0.050666064 0.050860435 -0.0520373
000020 c0 64 a3 bb 38 f6 7b bd 30 af fd 3d 0e 01 d3 bd
       -0.0049863756 -0.06151411 0.1238693 -0.103029355
000030 fa 45 80 bd 9a f6 97 3d cc 64 af 3d 4c 6f 37 3d
       -0.06263347 0.074200824 0.08564147 0.044783875
000040 20 3c e9 bc a4 63 ae 3d a8 53 77 bd 12 2b 8c 3d
       -0.028471053 0.08515099 -0.060382515 0.068441525
000050 66 cb ca bd 42 3f ea bd 74 67 cb bd f0 21 6e 3d
       -0.099020764 -0.11437847 -0.099318415 0.058137834
000060 c4 a3 9c bd 00 c0 96 b7 44 94 95 bd 22 14 b4 bd
       -0.07648423 -1.79708e-05 -0.0730367 -0.087929025
000070 cc ec c2 bd 32 b9 b5 bd 38 0d 8f bd e0 57 bb bc
       -0.09517822 -0.08873214 -0.06984943 -0.02286905
000080 88 b9 5d bd b8 a4 ca 3c ec f6 fb 3d 5c 53 87 3d
       -0.054132015 0.024736747 0.12302956 0.066076964
000090 f8 5f 9c 3c 18 a3 c7 bd 8e 98 9e bd 70 04 c1 3c
       0.01908873 -0.097479045 -0.07743941 0.023561686
0000a0 78 df 25 3d 28 b5 91 3c 20 3d ea bb 00 95 d3 3d
       0.04049632 0.017786577 -0.0071484 0.10331154
0000b0 78 52 b5 bd bc 8f e6 3d 90 49 47 3d 8e 98 df 3d
       -0.0885362 0.11257884 0.04865414 0.10917769
0000c0 26 7e c9 3d 90 75 54 bc 10 53 1c bd e4 f2 0f 3d
       0.09838514 -0.012967482 -0.038165152 0.035143748
0000d0 58 57 8c bd 10 3e f0 bd 8a 78 bb 3d 56 01 f0 3d
       -0.06852597 -0.117305875 0.091538504 0.11719005
0000e0 b8 82 e6 3c dc ed e3 bd 08 c5 04 3d 88 11 d6 3d
       0.028138503 -0.111293525 0.032414466 0.104525626
0000f0 76 30 89 3d 44 84 bf bd 9c 8d b4 3d 5a 35 8a bd
       0.06698696 -0.093513995 0.08816072 -0.06748457
000100 dc ea 5b 3d 80 c9 e4 bb aa da e9 bd 54 b6 ff 3d
       0.053690776 -0.0069820285 -0.1141866 0.12485948
000110 c0 9e f8 bc 40 45 49 3c f8 e6 df bc ec c8 66 bd
       -0.030349135 0.012284577 -0.027331814 -0.056343958
000120 98 19 b2 3c 28 b5 94 bd 10 3b d8 3c 78 de 95 3c
       0.02174072 -0.07261115 0.02639535 0.018294558
000130 00 e7 84 bb e0 1b 66 bd ba d5 f5 bd 30 32 67 bc
       -0.0040558577 -0.056178927 -0.12003656 -0.014111087
000140 a0 6d 38 3d ca 6b e8 3d 58 bf b2 bd 40 af 3c 3d
       0.04502642 0.11348684 -0.08727902 0.04606557
000150 68 10 f7 bc f8 3a 01 3d b0 19 ed 3c 30 92 50 bc
       -0.03015919 0.031550378 0.028942913 -0.012730166
000160 20 ac df bc e0 37 1c bc 28 f4 8d 3c 5c db c8 bd
       -0.027303755 -0.009534806 0.017328337 -0.098074645
000170 20 6f c8 3b b8 a4 47 bd 86 86 fe bd 64 be f8 3d
       0.0061167628 -0.048741072 -0.12428002 0.12145689
000180 a0 60 c4 bd ec ac 48 bd ac 76 fa 3d 84 12 25 3d
       -0.09588742 -0.048993036 0.12229666 0.04030086
000190 ea 97 ac bd f0 0f b7 3d 38 80 7e bd ac 18 b8 bd
       -0.08427413 0.08938587 -0.062133998 -0.08989081
0001a0 74 f5 b0 bd e0 94 63 bd 50 6f 9d 3d 18 57 f0 3c
       -0.086405665 -0.0555619 0.07687247 0.029338405
0001b0 58 6d 68 3d 66 4b c3 3d dc 48 44 3d 60 11 4c bc
       0.056744903 0.095358655 0.047921047 -0.012455314
0001c0 36 a8 a7 3d 64 ed 4f bd b0 5c 9b 3c 04 48 40 3d
       0.081863806 -0.050763503 0.018965095 0.04694368
0001d0 f4 f0 0d bd 38 38 f8 bd 98 0a 66 bd 2a aa 8c bd
       -0.03465362 -0.12120098 -0.056162447 -0.06868394
0001e0 20 62 4e 3c 10 28 37 bc 2c 50 8a 3d aa bd 80 3d
       0.012596637 -0.011178985 0.06753573 0.062861755
0001f0 b8 13 4e 3d 60 f2 b5 3c 64 18 58 3d b0 4f 28 bc
       0.050311774 0.0222103 0.052757636 -0.010272905
000200 40 0e f8 bd f0 be 65 3d 64 ab 08 bd f0 01 59 3d
       -0.12112093 0.056090295 -0.033366576 0.052980363
000210 60 07 8a bd 9e d2 e0 3d a4 6e 76 3d 34 ca a3 3d
       -0.06739688 0.10977672 0.06016411 0.079975516
000220 42 1a a0 3d 10 af 47 bd a4 41 6c bd 90 2d d4 bd
       0.07817508 -0.048750937 -0.057679787 -0.10360253
000230 5e 7e d0 3d 38 d6 da bc c8 23 ba bc e0 6e c2 3b
       0.10180353 -0.026713476 -0.02272214 0.0059336275
000240 ea 35 a5 3d 88 03 92 bd 14 cd 8d bd ec b5 fc 3d
       0.08066924 -0.0712958 -0.06923881 0.12339386
000250 f8 72 e6 bd ac 6c 74 bd 00 c2 47 3a 42 fb b3 bd
       -0.11252397 -0.05967395 0.0007620156 -0.08788158
000260 40 df 27 3c 78 7f 27 3d 60 c7 fb 3b e6 8b c5 bd
       0.010246098 0.040893048 0.0076836795 -0.09645824
000270 c8 98 77 3d 14 04 19 3d 78 ad 88 bd 34 5c dd 3d
       0.060448438 0.037357405 -0.066737115 0.10808602
000280 46 04 cd 3d 18 43 a8 bd 70 96 88 bc 70 25 c0 3c
       0.10010581 -0.08215922 -0.016673297 0.023455352
000290 c0 98 7e 3c 40 8e 23 bc bc 65 49 bd 8c b6 fa 3d
       0.015539348 -0.0099826455 -0.049169287 0.12241849
0002a0 fe 63 ce 3d 52 39 82 bd 2e 82 d0 bd 92 1d bb 3d
       0.10077666 -0.06358589 -0.1018108 0.091364995
0002b0 70 a1 c7 3d 68 8f a6 3c 80 92 04 3c 08 96 00 bd
       0.09747589 0.020332053 0.008091569 -0.03139308
0002c0 d8 ee f5 3d 60 30 4f bd 04 ba 6e bd 00 57 90 3d
       0.120084465 -0.050583243 -0.058282867 0.07047844
0002d0 bc 83 63 bd 12 b1 f2 bd 1c cb 76 3d d0 1c bd 3c
       -0.055545554 -0.1185018 0.060252294 0.023085028
0002e0 30 22 66 bc da 15 8b 3d fe 6d a0 bd 96 77 90 bd
       -0.014046237 0.06791277 -0.07833479 -0.07054059
0002f0 9a ed ef bd 38 23 1f bd b0 10 59 3d 2c 25 8f bd
       -0.11715241 -0.038851947 0.05299443 -0.06989512
000300 b6 9b e2 3d 4c b9 aa 3d a4 8d 70 3d a0 96 98 bb
       0.11064856 0.08336124 0.05872883 -0.004656628
000310 00 ae ba bb 5e b2 e5 3d 30 01 6c 3c fc 3b d3 bd
       -0.005697012 0.112156615 0.01440458 -0.103141755
000320 c6 59 c8 bd de f6 ac bd cc 32 4a bd 6c 7f 4a bd
       -0.09782748 -0.08445524 -0.04936485 -0.049437925
000330 e0 26 20 bd 4e b5 a0 3d e2 b6 d7 3d 08 a1 d1 bc
       -0.039099574 0.07847081 0.10532929 -0.025589481
000340 e8 ba 14 bd 0c 1f 7e bd 98 b4 99 bd 28 83 76 bd
       -0.03631106 -0.062041327 -0.07505149 -0.060183674
000350 6e bc c8 3d 68 69 57 3d 26 68 b6 3d fc 31 2d bd
       0.09801565 0.052590758 0.089065835 -0.042283997
000360 34 99 0a bd a8 88 f5 3c 48 d4 82 bc ec 1a 16 bd
       -0.033837512 0.02997239 -0.015970364 -0.03664677
000370 10 40 1d bd f0 6d 18 3c 64 ab 6c 3d 1e 77 c5 bd
       -0.038391173 0.009303555 0.05778064 -0.096418604
000380 b4 b0 6e 3d e8 89 e8 3d 1c 1d 10 3d 40 50 5a bb
       0.058273986 0.113544285 0.03518401 -0.0033311993
000390 e2 f6 81 3d 58 08 95 3d a2 68 d0 bd 46 2c 8b bd
       0.06345917 0.07276982 -0.10176207 -0.06795554
0003a0 46 fd e9 3d a0 73 69 3d 80 18 12 bb 1e 1f c9 bd
       0.11425261 0.056995034 -0.0022292435 -0.09820388
0003b0 16 01 b8 bd 40 b2 08 3c 40 28 1b 3b 80 1d 80 bb
       -0.08984582 0.008343279 0.0023675114 -0.0039097667
0003c0 a0 63 39 3d 58 60 be bd 04 84 68 bd 58 47 0a bd
       0.045261025 -0.0929572 -0.056766525 -0.033759445
0003d0 e8 d2 fd bc 40 9c 45 3d 88 b5 bb 3c 00 20 59 ba
       -0.030984357 0.048244715 0.02291371 -0.00082826614
0003e0 84 c4 b3 3d ea 54 bf 3d a0 3e a8 bc bc 58 1c bd
       0.08777717 0.09342368 -0.020537674 -0.03817056
0003f0 ec 87 65 3d c0 c0 8a bc 20 23 e7 bb 4e 2c 86 3d
       0.05603783 -0.016937613 -0.007053748 0.06551419

weight_ih_l0_reverse f4 [256, 40]
000000 d2 77 d8 be fe 2a 1f 3f c6 d9 1d 3f ae 09 0c 40
       -0.42278916 0.62174976 0.6166042 2.1880908
000010 5f 36 89 3f 84 e6 50 40 ec 59 b2 bf 42 4c e9 3f
       1.0719718 3.2640696 -1.3933692 1.8226397
000020 5c e8 fa 3f 5c 1b 32 40 3d 76 4c bf 2b 4c 15 3e
       1.960216 2.78292 -0.7986792 0.14579837
000030 0f dc a3 3f 1f ea 72 bf 5c de 3f c0 6c d3 18 3f
       1.2801532 -0.9488849 -2.9979467 0.59697604
000040 84 62 9b c0 f9 60 5a 3e 24 30 79 c0 78 df b6 bd
       -4.855776 0.21326055 -3.8935633 -0.08929342
000050 a0 75 1f be cb 0e 14 40 2c ad c7 bf b5 b1 8a 3f
       -0.15572214 2.313403 -1.5599723 1.0835482
000060 5e 3d 95 bf d0 a6 da 3f 4c 18 d6 bf 93 4a 6a 3c
       -1.1659353 1.7082157 -1.6726165 0.014300006
000070 28 20 2b 3f b0 98 4e be 04 c3 91 be e8 fc 31 40
       0.6684594 -0.20175433 -0.28469098 2.7810612
000080 73 ee 20 3f 9d db db bf e4 2a 24 be fb c8 5e 40
       0.62863845 -1.7176396 -0.16031986 3.4810169
000090 35 12 09 40 d4 62 0a c0 32 fe 09 c0 2f 5b e3 bf
       2.1417363 -2.162282 -2.1561399 -1.7762202
0000a0 50 43 61 be a0 f9 18 bf 6a 17 c8 3f 05 2c bb 3f
       -0.21998334 -0.597559 1.5632145 1.4622809
0000b0 6b 7f 00 bf f6 25 a4 bf d4 b7 c3 bf 29 80 03 be
       -0.50194424 -1.2824085 -1.5290475 -0.12841858
0000c0 7d 95 81 3e dd 63 b7 be 88 65 c0 3e 20 90 07 40
       0.25309363 -0.35818377 0.37577462 2.1181717
0000d0 fa e9 65 c0 2f bc 03 40 9b 24 ae 3c b8 6d 65 3c
       -3.5924058 2.0583608 0.02125769 0.01400321
0000e0 91 19 ef 3f fe 96 fd bf 47 2d 48 bf c1 b3 fd 3d
       1.8679677 -1.9811704 -0.7819409 0.12387801
0000f0 50 66 f9 bf 5d 95 36 3f 32 c6 36 40 c9 1a 26 40
       -1.9484348 0.7132166 2.855847 2.5953848
000100 b3 c4 e0 be b8 41 ef bf 62 4b 79 bf 43 d1 87 3e
       -0.4390007 -1.8691931 -0.9738065 0.26526842
000110 15 7f 05 40 99 2f 11 40 5a d0 08 c0 c8 ce c1 3e
       2.0858815 2.2685301 -2.1377168 0.37853074
000120 ea f4 9e be 64 42 15 3f f8 9b 8f 40 19 de 8c 3e
       -0.3104623 0.5830443 4.487789 0.27513197
000130 df 12 eb bf 5e 35 01 40 2d 4e 0e 40 bc 12 4b 3f
       -1.8365134 2.0188823 2.2235215 0.7932546
000140 56 f4 bd 3f a2 10 ae be 96 34 3e bf c4 93 0d bf
       1.484019 -0.33997065 -0.7429899 -0.553036
000150 71 be a1 bf 2d 3d 07 c0 35 0f 2e bf 0b 5f 48 c0
       -1.2636243 -2.1131089 -0.67991954 -3.130801
000160 8f d8 2b bf 78 4e 8a 3e 9e 34 91 bf 50 b6 8b 3f
       -0.6712732 0.27012992 -1.1344182 1.0915012
000170 7b d6 3a bf 01 70 59 3f 4a b5 19 40 0b 53 6a 40
       -0.7298352 0.8493653 2.40169 3.6613185
000180 30 0e 17 40 9e 21 5e 3f 5f 19 38 3f 25 d6 67 40
       2.360241 0.86770046 0.71913713 3.6224453
000190 3f d8 46 bf 6c 87 c2 3e 8c 49 17 40 91 e5 86 be
       -0.77673715 0.37993944 2.363864 -0.2634702
0001a0 4f d5 5b 40 d7 2b c5 3e 72 1e 2a 40 91 3d 09 c0
       3.4348943 0.3851001 2.6581082 -2.1443827
0001b0 31 4d b3 3e e1 f9 ed 3e 45 1c 75 bd 86 12 f2 bf
       0.3501983 0.46479705 -0.059841413 -1.8911903
0001c0 1f ce d8 3f 86 a1 e8 bf 43 90 79 3f 98 f4 55 3f
       1.6937903 -1.8174293 0.9748575 0.83576345
0001d0 8f 32 a1 40 ab 18 a6 c0 a4 7a 72 bf a9 a9 6b be
       5.0374217 -5.190511 -0.94718385 -0.23013939
0001e0 d2 c6 62 3f 2f b1 12 bf 82 d7 a3 bf e1 8c 48 40
       0.88584626 -0.5730161 -1.2800143 3.1335986
0001f0 9b 21 b1 3f 6e 2c 6e 40 07 5c 3d 3f c8 10 c3 3d
       1.383838 3.7214618 0.7396855 0.09524685
000200 03 36 a2 3f 0b 7a a9 bf a0 72 32 40 fa 7f a9 3f
       1.2672733 -1.324037 2.7882462 1.324218
000210 fb 5b b9 3e 55 73 ed 40 7a f5 01 3f 08 14 d1 bf
       0.36202988 7.4203286 0.5076519 -1.6334238
000220 ae 62 93 3f e8 ac b5 bf 35 eb a5 3f 60 e0 d5 3e
       1.151449 -1.4193392 1.2962404 0.41772747
000230 43 fc 27 40 da 2d 01 c0 df be 23 40 b8 b3 74 bf
       2.6247718 -2.0184236 2.5585248 -0.9558673
000240 2e e1 e7 bf d0 2c 7d 3e f0 80 75 3e ac 52 e4 3e
       -1.8115594 0.24724126 0.23974967 0.44594324
000250 06 23 cb bf 00 13 77 c0 13 bc 4d c0 0e 0b b1 3f
       -1.5870063 -3.8605347 -3.2146041 1.3831499
000260 86 75 f1 3f 11 6d 20 bf 59 6e de 3c 24 e4 d2 3f
       1.886399 -0.6266642 0.027152227 1.6475873
000270 d4 10 f2 bc 0d 8b f7 bc a7 51 d7 3f 01 ab 39 c0
       -0.02954904 -0.030217672 1.6821793 -2.9010623
000280 19 5c 2e c0 50 e2 c1 be 99 a3 eb 3e a5 84 10 40
       -2.7243712 -0.37867975 0.46023253 2.258096
000290 8b 3e 85 40 c4 0a b2 3f 37 29 9e bf 15 fe d7 bd
       4.1638846 1.3909535 -1.2356328 -0.10546509
0002a0 e0 cf 9d 3e cb 3e 69 3d 8e 65 a2 3a 6c eb 05 c0
       0.3082266 0.05694465 0.0012389885 -2.092494
0002b0 da 98 84 be dd e4 d3 3f ab 8d 20 3f e2 7a 56 bd
       -0.25897866 1.6554219 0.6271617 -0.052363284
0002c0 5e 1b a6 bf 43 ee a2 be 1e 5a af 3e fd c6 0d c0
       -1.2977102 -0.31822404 0.3424844 -2.2152703
0002d0 c4 51 c7 bf b0 ea 44 bd 1c 1e 41 3e 71 a4 16 c0
       -1.5571828 -0.048075378 0.18859142 -2.3537867
0002e0 11 49 27 bf e4 52 ca 3f 59 c8 23 c0 90 d2 51 be
       -0.65345865 1.5806546 -2.5591033 -0.2049048
0002f0 91 a8 70 bf 83 23 60 bf fb 24 a5 bf d1 8b 52 40
       -0.9400721 -0.87554187 -1.290191 3.2897837
000300 f4 08 aa 3f 9d 05 d8 3d 6e cf f9 be e5 4f ca be
       1.3283982 0.10547946 -0.4879107 -0.3951408
000310 38 0c b3 bf ee 9d ad 3f b3 02 a4 3e 03 54 1f c0
       -1.3988104 1.3563821 0.3203331 -2.4895027
000320 fe bd 32 c0 2a ca a1 3e e1 94 49 3e d4 53 cd 3d
       -2.7928462 0.3159955 0.19685699 0.100257546
000330 87 3d e7 bf da 61 3e 3d 21 69 a8 3f 16 81 0b 40
       -1.8065652 0.046480037 1.3157083 2.1797538
000340 10 11 8a bf 1d 7f 01 3f 50 ae 90 bf 55 65 8b bf
       -1.0786457 0.50584584 -1.1303196 -1.0890299
000350 e0 93 2f 3f bf 2a 6f 40 f8 fc 32 40 cb 24 a8 3f
       0.68585014 3.736984 2.79669 1.3136228
000360 44 61 c9 3f 4d 70 01 40 50 88 ba 3f 5a 80 4d 3e
       1.5732808 2.0224793 1.4572849 0.20068493
000370 ef fb a3 3f 77 6f 03 c0 e4 53 0e bf e3 83 9f 40
       1.2811259 -2.0536783 -0.55596757 4.9848495
000380 19 27 28 be 00 e9 bb 3e 63 40 a4 be 80 60 21 40
       -0.16421165 0.36701202 -0.32080373 2.521515
000390 42 8e b4 bf 18 b6 4e bf 0f 62 c6 3f e9 23 e9 3f
       -1.4105914 -0.80746603 1.5498675 1.8214084
0003a0 0f be 03 c0 e3 1a a5 3f b7 f6 8a be d8 ce 89 bf
       -2.0584753 1.289883 -0.27141353 -1.0766249
0003b0 68 50 28 40 64 60 31 c0 be bb 21 c0 3c c7 1e bd
       2.6299076 -2.7715082 -2.5270839 -0.038764223
0003c0 a2 8c 0b bf a8 1d 9b 3e eb b5 1b c0 0c 34 e1 3f
       -0.54511464 0.30296063 -2.4329784 1.7594008
0003d0 b1 8a 7a bf 9b d3 32 40 58 da 05 c0 8e 87 21 bf
       -0.97867876 2.7941654 -2.0914516 -0.63097465
0003e0 fa 50 7f 3e 71 2a 5d 3f 27 bd ce 3e ca 2d 15 be
       0.24933234 0.86392885 0.40378687 -0.14568248
0003f0 aa ed 94 3e bb 4a 68 bf cf f0 a2 be 20 f2 ed bf
       0.29087573 -0.9073903 -0.31824347 -1.8589516

weight_hh_l0_reverse f4 [256, 64]
000000 b4 e1 e1 bf 2b e4 30 bf b7 a7 0d 3f b0 44 90 bf
       -1.7647004 -0.69098157 0.5533404 -1.1270962
000010 fe 69 d8 3e 03 52 af 3e 89 cf 1a bf e4 53 ac 3f
       0.42268366 0.34242257 -0.60472924 1.3463101
000020 3d 10 cf be 10 b5 10 40 a0 64 04 40 80 3c f3 bd
       -0.40442076 2.2610512 2.0686417 -0.11876774
000030 30 41 cf 3f 0a bc 88 c0 5b 0c ad 3f a6 0a c8 be
       1.6191769 -4.272954 1.3519396 -0.39070624
000040 aa d5 b9 c0 8b 7d c9 bf 6f ab 1a 40 fe 29 97 bf
       -5.807332 -1.5741438 2.4167135 -1.180969
000050 21 f3 0c bf 45 8a 6c 3b 38 97 7e 3f 3c e6 05 c0
       -0.55058485 0.0036093157 0.9944949 -2.0921774
000060 98 86 3e bf b3 f2 fb 3d 82 fd ff bf a7 7a 35 c0
       -0.74424124 0.123021506 -1.999924 -2.835611
000070 31 0c da bd 11 b2 ba 3f 7d cc af 3d 5a 54 fe 3f
       -0.106468566 1.4585592 0.08583925 1.9869492
000080 3b 92 7f 3f 94 d2 d2 bf eb 88 b9 be 74 03 44 c0
       0.99832505 -1.6470513 -0.36237273 -3.0627108
000090 d1 e5 a7 bf ba 7b a8 be be 29 2a 3f 8b 03 89 3f
       -1.3117009 -0.32906896 0.66469944 1.0704206
0000a0 ae e7 80 3f 58 95 29 bf 56 b9 11 c0 9f ae ac bc
       1.0070703 -0.66243505 -2.276937 -0.02107936
0000b0 c0 97 08 40 8e f8 88 bf 43 85 ab 3f cd c6 ac bf
       2.134262 -1.0700853 1.3400043 -1.3498169
0000c0 11 dc ac 3e b5 ea 19 c0 85 7a 98 bd 00 6e 42 c0
       0.33761647 -2.4049504 -0.07445244 -3.0379639
0000d0 80 19 ea be 23 06 54 40 b9 01 2f c0 97 e7 db bf
       -0.4572258 3.3128746 -2.7344801 -1.7180051
0000e0 7d 59 bf bf b3 61 a5 bf ec 79 0c 40 6e 54 1a c0
       -1.4949185 -1.292044 2.1949415 -2.4114032
0000f0 27 f2 24 3f ce 67 28 bf 92 06 c6 3f 54 fc 12 40
       0.64431995 -0.65783393 1.5470755 2.296651
000100 f7 78 89 3f 37 04 a0 3f a6 99 2f c0 21 8e c5 3f
       1.074004 1.2501286 -2.743753 1.5433999
000110 c7 1a 20 3f b8 3a a6 bf a8 b0 b2 bf 3f 34 ab 3d
       0.6254086 -1.298667 -1.3960161 0.083595745
000120 d1 e0 20 bf d8 24 d8 3e 00 36 4b 40 a8 dd 95 3f
       -0.6284304 0.4221561 3.175171 1.1708269
000130 76 23 be 3e c1 5b fd bf 36 29 2d 3e a5 13 1d bf
       0.3713643 -1.9793626 0.16910252 -0.613581
000140 a8 aa 57 be a1 58 4c 3f 3a e3 05 40 f5 4f 33 c0
       -0.21061194 0.79822737 2.0919938 -2.8017552
000150 81 84 dd 3f 6b bd 1e 40 bf 03 08 40 4b 5d 01 3f
       1.7306062 2.4803112 2.1252286 0.5053298
000160 25 72 7c bf 82 00 62 40 3d ef 2e 3f b4 3e a9 be
       -0.9861167 3.531281 0.683338 -0.3305565
000170 b7 d6 94 3d 3d a2 1e bf ba 76 10 bf 33 dd 0f 3f
       0.07267516 -0.61966306 -0.5643116 0.561969
000180 f2 43 02 40 03 11 d6 bf b7 17 22 3f 36 1c 30 bf
       2.035397 -1.6723942 0.63317436 -0.68793046
000190 74 43 2c bf 62 c8 ca 3d 57 d0 37 40 4c 27 3e c0
       -0.67290425 0.09901501 2.872091 -2.9711485
0001a0 2c 71 14 bf d6 90 01 3e 10 c8 46 bf a8 af 42 be
       -0.57985187 0.12652907 -0.7764902 -0.1901232
0001b0 b4 aa 46 be 5c 29 cc be 0a 2d c5 be 11 83 cf bf
       -0.19401056 -0.39875305 -0.38510925 -1.6211873
0001c0 58 16 b0 be e5 c1 73 3f b6 e6 ae 3f 52 87 21 bf
       -0.34392047 0.95217735 1.3664157 -0.6309711
0001d0 aa 63 38 bf 30 99 17 bf 63 c1 d6 bc 86 d8 4a 40
       -0.72027075 -0.5921812 -0.02621526 3.1694655
0001e0 8a a2 a0 3f e2 ba 0a bf 95 d9 02 c0 42 7f 12 bf
       1.2549603 -0.5419141 -2.0445302 -0.5722543
0001f0 cf 3a 75 3f 84 39 09 bf a1 0f 99 3e 3b 80 dc 3f
       0.9579286 -0.53603387 0.29894736 1.7226633
000200 ac b2 99 bf 00 a4 96 c0 09 0f bb bd 52 9b d2 be
       -1.2007651 -4.7075195 -0.09133727 -0.41134125
000210 5e 74 85 bf e9 67 bb 3f b3 09 0e bd 5a 77 62 be
       -1.0426137 1.4641086 -0.03467722 -0.22115842
000220 02 c5 1c 40 90 5e fc bf b1 c7 89 bf 49 6c 9b bf
       2.4495244 -1.9716358 -1.0764066 -1.2142421
000230 56 30 4b 3f d2 43 39 bf c8 87 bf bf 80 e4 e0 bf
       0.7937063 -0.7236911 -1.4963312 -1.7569733
000240 32 12 b1 3f 46 58 18 bf 9b 88 36 c0 52 1c 44 c0
       1.3833678 -0.59509695 -2.8520877 -3.0642285
000250 eb aa 3a be e1 c0 82 3f 03 2a 57 3f 38 88 a7 bf
       -0.18229263 1.0215112 0.8404848 -1.3088446
000260 83 89 c2 be c5 33 87 bf 5b 28 d2 bf 9d d9 91 3f
       -0.37995538 -1.0562674 -1.6418566 1.1394535
000270 db f6 a1 3f 55 7d 87 3f 21 08 02 c0 e6 be e4 bf
       1.2653459 1.0585123 -2.0317461 -1.7870758
000280 4d 17 55 3d ed 32 85 bf c4 54 8d 3f 18 62 b0 bf
       0.052024174 -1.0406166 1.1041493 -1.3779936
000290 c4 ae d3 bd e9 9a 9f 3f 1d 13 9d bf 26 e9 95 3f
       -0.10336068 1.246915 -1.2271458 1.1711776
0002a0 98 4a 63 c0 d3 d6 cf 3f 98 49 db 3f 34 44 a0 3e
       -3.5514278 1.6237434 1.7131834 0.31302035
0002b0 6e 81 52 bf 52 f6 61 40 7e e1 07 40 5c 6c c0 bf
       -0.82228744 3.5306592 2.123138 -1.5033069
0002c0 74 3c d1 3f ad f0 a1 3e 0c 3c 37 c0 57 17 bb 3f
       1.6346574 0.31628934 -2.86304 1.4616498
0002d0 c6 c5 c1 bf f2 48 b0 3f 89 d1 eb 3e d6 d5 87 3f
       -1.5138481 1.3772261 0.460583 1.0612133
0002e0 df 20 4b c0 31 b4 cb 3f a6 c5 fd bf 68 17 fc bf
       -3.1738813 1.5914365 -1.9825943 -1.9694643
0002f0 71 c1 af 3e 7d 5b 0d c0 39 a3 49 c0 a5 52 bc 3e
       0.34327272 -2.208709 -3.1505873 0.36781803
000300 05 34 99 40 13 e2 d6 bf 46 e2 38 c0 db a4 4e bf
       4.7876 -1.6787742 -2.8888106 -0.807203
000310 49 32 46 3f 92 c9 28 3f 0f ad 40 c0 26 8b c5 3f
       0.7742048 0.6593257 -3.0105627 1.543309
000320 71 ad 63 be 23 59 03 40 fc 3b 56 3e d0 d2 0a 40
       -0.22234131 2.0523155 0.2092132 2.169117
000330 72 7f 48 c0 5d 60 25 3e 8e bd e1 3f 22 03 0c c0
       -3.1327786 0.16150041 1.7635972 -2.1876912
000340 e0 3f 33 3e 6d d2 4d 3f f8 7f 71 bf 7f fb 94 3f
       0.17504835 0.8039921 -0.9433589 1.163925
000350 d2 9d c3 3f 86 b3 48 c0 08 4b 05 c0 42 f0 30 bf
       1.5282538 -3.1359572 -2.0827045 -0.69116604
000360 54 25 08 bf 60 19 1b b7 61 55 8b bf 55 d9 e5 3f
       -0.5318196 -9.244628e-06 -1.088543 1.795695
000370 88 b1 00 3e 9f e5 08 40 59 cf bb bf 78 70 00 c0
       0.12567723 2.139015 -1.4672652 -2.0068645
000380 5e 01 83 bf 49 e7 e4 3e b5 7d 07 40 8d 0c c2 3f
       -1.0234792 0.44707707 2.1170475 1.516008
000390 8e 41 70 3f 48 cc 04 bf e9 fa ba 3e 79 28 22 40
       0.9385003 -0.5187421 0.36519554 2.5337203
0003a0 02 cc 8c c0 3b 28 b9 bf e4 2c 75 40 19 20 31 c0
       -4.3999033 -1.4465402 3.830865 -2.767584
0003b0 2b 19 8b 3f da b0 a8 3f ba 26 3f c0 68 65 96 3e
       1.0867056 1.3178971 -2.9867387 0.29374242
0003c0 fb 25 a3 bf 86 3d 5f 3f 9c 27 f2 3f 6f df 4f 3f
       -1.2745966 0.8720325 1.8918338 0.8120031
0003d0 85 62 89 bd 98 9e bc bf 4e e5 58 40 3a de 3f 3f
       -0.06708244 -1.4735899 3.3889956 0.74948466
0003e0 78 9f 0a c0 61 47 85 40 63 57 35 c0 fd 66 6a 3f
       -2.1659832 4.1649632 -2.8334587 0.915634
0003f0 b7 f0 3b 40 69 5f 8d bf 1c a1 8d bf 2b c3 58 40
       2.936567 -1.1044742 -1.1064792 3.386912

bias_ih_l0_reverse f4 [256]
000000 a1 3f dc be 6e 2a a0 3f 0a 28 08 c0 c3 80 e0 bf
       -0.43017295 1.2512949 -2.1274438 -1.7539295
000010 62 ac d2 bf cc 22 d1 bd 34 dd d6 3f 98 b7 b4 bf
       -1.6458857 -0.10211715 1.6786256 -1.4118528
000020 0a c9 43 3e 81 27 09 c0 6a 18 6f bf b8 fd ce 3f
       0.19119659 -2.1430361 -0.9339663 1.6171179
000030 35 03 25 be d2 d7 0b 40 9a 74 4b c0 84 f0 3a c0
       -0.16114505 2.1850476 -3.1789918 -2.92093
000040 b0 1a 36 bf a3 a7 02 c0 90 ab 75 c0 de 0c 49 3e
       -0.7113447 -2.0414817 -3.8385963 0.19633815
000050 c8 42 69 bf 50 1c 0a c0 fe 98 4f 3e 18 f0 02 c0
       -0.91117525 -2.157978 0.20273206 -2.0459042
000060 a2 9c d8 bf 84 95 80 be 59 70 7b bf c0 4d 16 40
       -1.69228 -0.2511407 -0.98218304 2.3484955
000070 cb b5 08 40 ec 2c 8b 3e 6f 67 db 3e c6 95 13 40
       2.1360958 0.2718271 0.4285235 2.3060164
000080 8d 7e 3c be 2e e6 28 bf ac 47 62 bf 0e 0c 55 c0
       -0.1840765 -0.65976226 -0.8839061 -3.3288608
000090 fd 59 b1 bf 02 62 07 c0 66 86 28 be c9 77 84 be
       -1.3855587 -2.115357 -0.16457519 -0.2587264
0000a0 5e bd 3f 3f ed 4c ef bf 5f d4 05 40 ec ea 0c 3f
       0.74898326 -1.8695351 2.091087 0.5504596
0000b0 13 4a 0b bf a1 9c 46 c0 df 00 45 bf 42 ff 20 c0
       -0.54409903 -3.1033099 -0.76954454 -2.5155797
0000c0 ff fa 81 3f d1 de c4 be 76 fb 8b bf e5 29 0a c0
       1.0154723 -0.38451245 -1.0936115 -2.158807
0000d0 0d 88 4b c0 34 3d 7b c0 28 41 82 bf a7 81 68 bf
       -3.1801789 -3.9256105 -1.0176134 -0.90822834
0000e0 ad 49 86 bf b0 70 2e c0 2b 0d 9d 3f bf d1 09 bf
       -1.0491234 -2.725628 1.2269644 -0.5383567
0000f0 5c be 29 3e 72 6e 0f bf 9d a3 8a bf 7b e2 83 c0
       0.16576523 -0.560279 -1.0831181 -4.1213965
000100 a4 cb 8e 3d 83 08 7a 3e 58 c0 b9 bf d9 75 ea bf
       0.06972435 0.2441731 -1.4511824 -1.8317214
000110 7f 0c 03 c0 b2 ca ad bf e6 cc 64 be 47 cb 7e bf
       -2.0476377 -1.3577483 -0.22343788 -0.99528927
000120 4c f4 ba bc 89 c4 09 c0 d6 ab 46 be 00 94 5d c0
       -0.022821568 -2.1526206 -0.19401488 -3.4621582
000130 12 5a 24 40 f2 29 cc 3f cb 2e 07 c0 25 c9 50 c0
       2.5679975 1.5950301 -2.112231 -3.262277
000140 a5 43 bb be a8 2e fd bf 1b 93 fa bc ac 0b 10 bf
       -0.36575046 -1.9779863 -0.030587723 -0.5626781
000150 9b ed 3f bf 4a c1 f6 be 80 63 ab 3e 85 fb 41 3f
       -0.7497193 -0.48194343 0.3347435 0.75774413
000160 0b f3 1c c0 39 2f c6 be e6 71 80 bf 25 f5 c5 3e
       -2.4523342 -0.38707903 -1.0034759 0.38663593
000170 dc e1 86 bf 10 ef ea bd ce 2f 43 3f 12 7a 25 bf
       -1.0537677 -0.11471379 0.7624482 -0.6463939
000180 ee 68 8e 3f 2c 9b 17 bf 46 b5 a0 bf 1a 46 07 3f
       1.1125772 -0.5922115 -1.255532 0.5284134
000190 6b ad 44 c0 a5 b1 85 bf 7b 85 ec bf cf 00 63 3f
       -3.0730846 -1.0444838 -1.8478235 0.8867311
0001a0 f6 28 aa 3f e1 85 1a bf 72 98 cd 3f 82 28 4d bf
       1.329375 -0.60360533 1.6062148 -0.80139935
0001b0 42 b8 60 bf ac 9b 1a c0 ed eb 37 c0 64 b6 f1 3e
       -0.87781155 -2.4157515 -2.8737748 0.47209466
0001c0 50 02 ca bd 14 fd 02 bf 23 58 cc bf b8 17 a7 bf
       -0.09863722 -0.51167417 -1.5964397 -1.3054113
0001d0 46 1e 6e c0 0e 95 96 c0 9e 89 09 c0 30 50 05 3f
       -3.7205977 -4.705695 -2.1490245 0.5207548
0001e0 8b 69 a9 3f 7b 0a 56 3f 7a f6 e1 3f 1a f7 49 c0
       1.3235334 0.8360974 1.7653344 -3.155707
0001f0 0c 3f 1a c0 a0 84 8c 3f 41 a5 d7 3f 90 0b 75 c0
       -2.410098 1.0977974 1.6847306 -3.8288307
000200 8a f0 05 bf 27 d8 bd bf 05 af 17 3f fe 11 c6 bd
       -0.5232016 -1.483159 0.59251434 -0.096714005
000210 fd 13 b0 be 39 4f 68 40 af 21 63 40 21 29 8c 3f
       -0.3439025 3.6298354 3.548931 1.0950052
000220 25 80 47 c0 77 d1 3f 40 7f 83 db bd aa 65 13 c0
       -3.1171963 2.9971597 -0.1071844 -2.30308
000230 0b 72 e6 bf 90 68 6d be b4 14 a1 be e8 11 be 3e
       -1.8003553 -0.23184419 -0.31461108 0.37123036
000240 75 f1 dd bd 05 e2 50 c0 5e ea 9f 40 85 40 6a 3e
       -0.1083707 -3.2637951 4.9973593 0.22876175
000250 39 c1 ed bf 98 7d a7 3f ba 2c a1 3f 0c 08 f4 bf
       -1.8574592 1.3085203 1.2591774 -1.9064956
000260 3a af 77 bf 17 e7 24 40 f9 e0 ba be df b4 85 c0
       -0.9675175 2.5766046 -0.36499766 -4.178329
000270 4d 3f 8e c0 e6 3b 40 40 aa 83 b0 3e 28 26 24 40
       -4.445227 3.003656 0.34475452 2.5648289
000280 41 8a 02 3f bf f3 0f 40 dc 4c 96 40 0b 5b f2 be
       0.5099221 2.249252 4.6968822 -0.47335085
000290 c4 33 30 c0 68 a5 3c bf f2 67 83 3f 9a cf 59 c0
       -2.7531595 -0.7368989 1.0266097 -3.403296
0002a0 2d 81 a9 3f ee 7c 9a 3f 30 f8 6a c0 bf 67 c1 bf
       1.3242546 1.2069376 -3.6713982 -1.5109786
0002b0 24 9c 1c 3f 9c 6a 95 3f 22 a1 e7 3f 19 de 9b bf
       0.6117575 1.167316 1.8096049 -1.2177154
0002c0 59 d7 e9 3e 4d 74 27 bf 78 7b 4b 40 37 75 6e 3f
       0.4567211 -0.65411836 3.179411 0.93147606
0002d0 a4 ad 1a c0 8c 80 a3 3f 79 1f 97 be d8 e3 27 40
       -2.4168482 1.2773604 -0.295162 2.6232815
0002e0 95 22 fd bd f1 36 50 3f 62 fc 0a 40 13 b5 df bf
       -0.123601116 0.81333834 2.1716542 -1.7477134
0002f0 cc 98 54 3f 1f 5f b8 3f 67 d5 85 3f 91 c0 05 40
       0.8304565 1.4404029 1.045575 2.0898783
000300 48 41 b9 bf fe 7c 40 c0 4a 3e 2c c0 61 7a 01 c0
       -1.4473047 -3.007629 -2.6913018 -2.0230944
000310 2a b3 17 c0 37 95 0b c0 b2 b7 22 bf ce d1 01 3f
       -2.3703103 -2.1809824 -0.63561547 0.5071076
000320 c4 ca d0 bf f8 55 7f c0 53 b6 d8 bf 8f d3 bf 3f
       -1.6311879 -3.989622 -1.6930641 1.4986438
000330 f6 12 e3 bd 34 29 c4 bf 7d 84 a2 c0 db 5b cb be
       -0.11087601 -1.5325074 -5.078673 -0.39718518
000340 58 58 1c c0 c2 9c 33 c0 6e a6 1c c0 72 4a 9a bf
       -2.442892 -2.8064427 -2.447658 -1.2053969
000350 1b 97 f2 bf 3e d6 c5 3d e3 fd 47 c0 e3 f2 19 c0
       -1.8952364 0.09660004 -3.124871 -2.4054496
000360 b2 36 87 c0 ae 3a 26 c0 48 11 3f bf b1 a3 4a 40
       -4.2254267 -2.5973315 -0.74635744 3.166241
000370 44 a2 16 bf b4 99 1a c0 61 a9 1e 3e ea 9a 03 3f
       -0.5884135 -2.4156313 0.154943 0.51408255
000380 a2 b2 4f 3e 54 91 6b bf 84 7f a1 3d f5 ce c7 3d
       0.20282987 -0.9201863 0.0788565 0.09756271
000390 d9 8d 31 40 df af 84 bf 4e 41 30 c0 2a a9 c8 be
       2.7742827 -1.0366172 -2.753986 -0.39191562
0003a0 70 ce 01 bf 51 6f 10 c0 e8 bc 45 3f 29 85 0a c0
       -0.50705624 -2.2567942 0.77241373 -2.1643775
0003b0 3a be 0f c0 20 ad 39 c0 36 a9 cc bf d2 da b9 bf
       -2.2459855 -2.9011917 -1.5989139 -1.4519904
0003c0 a0 0c c6 bf 19 e2 f0 bf 20 bb 39 c0 07 e1 c2 bf
       -1.5472603 -1.8819 -2.9020462 -1.5224923
0003d0 73 83 bf bf 5a b4 78 c0 28 a8 19 c0 1c f5 36 c0
       -1.496199 -3.8860078 -2.4008884 -2.8587103
0003e0 94 ac 94 be be 78 1d c0 87 61 99 3f 6e 78 82 c0
       -0.29037917 -2.4604945 1.1982888 -4.077201
0003f0 6f 55 ca bf 11 99 7b bf 85 bd 26 bf 6f d4 3f c0
       -1.5807322 -0.98280436 -0.65132934 -2.997341
